rlkit/model/rightmodel/model_parameter.pkl (torch, 589387 bytes, 9 tensors)

action_log_std f4 [1, 2]
0	0xbe44c473	-0.19215564
1	0xbf4d8d55	-0.8029378

fcs.0.weight f4 [256, 56]
0	0x3e1ed2df	0.15510128
1	0x3c85610e	0.01628163
2	0x3e431551	0.190511
3	0x3d86a526	0.06574468
4	0x3cf20c1e	0.029546794
5	0x3c1dfd4c	0.00964291
6	0xbd0a7f3d	-0.03381275
7	0x3e626615	0.22109254
8	0x3de52b19	0.11189861
9	0x3ba1b09b	0.004934383
10	0xbde80d59	-0.11330671
11	0x3cae81c3	0.02130211
12	0x3e69dac3	0.22837357
13	0xbce01954	-0.027355827
14	0xbd5d76a8	-0.054068238
15	0x3d939a96	0.07207219
16	0xbc8334e9	-0.01601644
17	0xbce38aec	-0.027776204
18	0xba25e726	-0.0006328694
19	0xbd58aff8	-0.052902192
20	0xbcc72574	-0.024309851
21	0x3d2cf987	0.042230155
22	0xbe049a51	-0.12949492
23	0x3e196e6c	0.14983529
24	0xba28f2f1	-0.00064448925
25	0xbd975875	-0.07389919
26	0x3d73fd12	0.05956752
27	0x3d7a1652	0.061056443
28	0xbd7a351b	-0.0610858
29	0x3c52e493	0.012871879
30	0xbd2835c8	-0.041066915
31	0xbd8f2ded	-0.069911815
32	0xbcae4554	-0.021273293
33	0x3df5ca7c	0.120015115
34	0x3d3e4698	0.046454042
35	0xbd9b4c30	-0.07582891
36	0x3d441842	0.047874697
37	0x3cf5842e	0.029970255
38	0xbe13d36c	-0.1443612
39	0xbcbbea33	-0.022938823
40	0x3dc30982	0.09523298
41	0xbd8dd622	-0.06925608
42	0x3e32c21d	0.17456861
43	0xbcf09614	-0.029368438
44	0x3d545929	0.051842842
45	0x3d514eb2	0.05110044
46	0xbd94de03	-0.07268908
47	0xbdbef608	-0.093242705
48	0xbdcf0a9c	-0.101094455
49	0x3d911760	0.070845366
50	0xbdd76bb5	-0.1051859
51	0x3db3d658	0.08781117
52	0xbce76aa4	-0.028249092
53	0xbcde05d8	-0.027102396
54	0xbbba4f71	-0.0056857397
55	0xbc796e1b	-0.015224005
56	0xbcf34743	-0.029697066
57	0xbd548941	-0.051888708
58	0x3d037965	0.032098193
59	0x3db7c0e5	0.089723386
60	0xbc97b357	-0.018518133
61	0xbd718713	-0.058966707
62	0xbd899ef1	-0.06719769
63	0x3daa3d6f	0.08312499
64	0x3ce63153	0.028099691
65	0xbcf85a9b	-0.030316642
66	0xbd6e672b	-0.058203857
67	0x3d3149fd	0.04328345
68	0x3d30e42c	0.04318635
69	0x3d0ed1e0	0.03486812
70	0xbd18ebc4	-0.03733422
71	0xbe07835c	-0.13233703
72	0xbc82fcee	-0.015989747
73	0xbe47b15a	-0.19501248
74	0x3dca2792	0.09870829
75	0x3d5d799a	0.054071046
76	0xbd45ce08	-0.04829219
77	0xbc8a5d8f	-0.016890315
78	0x3e073fac	0.13207883
79	0x3e2b58ae	0.16733047
80	0xbd109f7c	-0.035308346
81	0xbd9a3675	-0.07529918
82	0xbd222cab	-0.03959338
83	0xbe1c0c20	-0.15239
84	0x3dd263f5	0.102729715
85	0xbd25aea7	-0.040449765
86	0xbd4fbfcb	-0.050720017
87	0xbaabbc9b	-0.0013102473
88	0xbd0752d0	-0.03303796
89	0xbd49d0e6	-0.049271487
90	0x3d1ea795	0.038734037
91	0x3e14a968	0.14517748
92	0xbdc685fe	-0.09693526
93	0xbdd8c410	-0.10584271
94	0xbd6f9e32	-0.058500476
95	0xbbbeaad6	-0.005818705
96	0x3d8c22d0	0.068425775
97	0x3b1be3f5	0.0023786996
98	0xbe11a4e6	-0.1422306
99	0xbe337707	-0.17525874
100	0xbd4256c5	-0.04744603
101	0x3e8a7300	0.27040863
102	0xbd7a2d01	-0.061078075
103	0x3dc3193b	0.09526297
104	0xbdc361a7	-0.0954011
105	0x3c55d857	0.013052068
106	0xbdfca50e	-0.12336169
107	0x3cdb9aa0	0.02680713
108	0xbe36e5bc	-0.17861074
109	0x3df010aa	0.117219284
110	0x3d6084a4	0.054813996
111	0x3d6346d0	0.055487454
112	0xbd6d5961	-0.057946566
113	0xbd73126d	-0.059343744
114	0x3d80a1f1	0.06280888
115	0x3d9d3459	0.07676
116	0x3ca9db16	0.020734351
117	0xbd2cddf6	-0.042203866
118	0x3c97b7fc	0.018520348
119	0x3dca5c2c	0.09880862
120	0x3d7cf232	0.061754413
121	0xbd31e8ff	-0.043435093
122	0x3c37a789	0.011209377
123	0x3d04bae5	0.0324048
124	0x3dc35eff	0.095396034
125	0x3e35d5ce	0.17757341
126	0xbdc4bb35	-0.096060194
127	0x3e7606a6	0.24025974
128	0x3cdefb64	0.027219482
129	0x3d02136e	0.03175681
130	0xbc266bc8	-0.010157533
131	0xbd6a0d19	-0.057141397
132	0xbd163f5c	-0.036681518
133	0x3d6343a1	0.055484418
134	0xbd83f1a2	-0.06442572
135	0xbd77a7bd	-0.060462702
136	0xbd38ec0d	-0.04514699
137	0xbd567e10	-0.052366316
138	0xbce8faa8	-0.028439835
139	0xbd9bb6fe	-0.07603262
140	0xbc6420ef	-0.013923868
141	0x3d537ae5	0.051630873
142	0xbda4c5d3	-0.080455445
143	0x3df05da1	0.11736608
144	0xbc9581c3	-0.018250352
145	0xbbf81a41	-0.007571489
146	0x3d622ba3	0.055217396
147	0xbd8b0fa7	-0.06790095
148	0x3cc73f79	0.024322258
149	0xbcf22c04	-0.029562004
150	0xbda0dcdb	-0.07854625
151	0x3cbd101a	0.023078967
152	0x3d5f3cb5	0.054501254
153	0x3db9036b	0.09033855
154	0xbd2c4baf	-0.042064365
155	0x3df9ad55	0.121912636
156	0xbcfe7965	-0.031063745
157	0x3e6e625f	0.23279713
158	0x3daa4a2b	0.08314928
159	0x3db08567	0.086191945
160	0x3d808d98	0.06277007
161	0xbca35d59	-0.019941973
162	0x3d10e251	0.035372082
163	0x3d8698c0	0.065721035
164	0x3ca9cdd3	0.020728027
165	0x3dd33220	0.10312295
166	0xbdd1160d	-0.10209284
167	0xbe4de802	-0.20108035
168	0xbcd14f04	-0.025550373
169	0xbd602650	-0.054724038
170	0xbd24f41f	-0.040271875
171	0xbdb8d5fe	-0.09025191
172	0xbd73a20c	-0.05948071
173	0x3cb72978	0.022358641
174	0xbd8ae043	-0.06781056
175	0xbb40d896	-0.002942597
176	0xbd01392a	-0.031548657
177	0xbdc43f11	-0.095823415
178	0xbd88900a	-0.06668098
179	0xba0b3fb8	-0.0005311924
180	0xbd5f5822	-0.05452741
181	0xbcfbce2e	-0.030737963
182	0x3b855446	0.004068884
183	0xbb837d9f	-0.004012778
184	0xbda8d7ea	-0.08244307
185	0x3e524f0e	0.2053797
186	0xbe010b15	-0.12601884
187	0xbc2594b6	-0.010106256
188	0x3e3a9e88	0.18224537
189	0xbc2d6cf3	-0.010585058
190	0x3e94d884	0.29071438
191	0x3d45d3a7	0.04829755
192	0x3d362386	0.04446747
193	0x3e786a2e	0.24259254
194	0xbd30f111	-0.04319865
195	0xbd960cdb	-0.07326671
196	0x3d1895b9	0.03725216
197	0x3d11be2a	0.035581745
198	0x3be3388b	0.0069342307
199	0xbdd22ae0	-0.10262084
200	0xbd9eda3b	-0.07756468
201	0x3d83ebe0	0.06441474
202	0xbd67d101	-0.056595806
203	0xba8d5753	-0.0010783471
204	0xbe0a6dc7	-0.13518439
205	0x3e003eb8	0.12523925
206	0x3d73e8f6	0.05954834
207	0x3cd662b4	0.026170112
208	0x3e8a2fa0	0.2698946
209	0x3d89e7ce	0.06733666
210	0x3d469d1e	0.048489682
211	0xbc8ed7e8	-0.017436936
212	0xbd3c0a0d	-0.045908023
213	0x3d4cd691	0.050009314
214	0xbdf2755d	-0.118387915
215	0xbc2cad2d	-0.010539335
216	0x3d040aa6	0.032236718
217	0xbd299bc7	-0.041408326
218	0x3e12dd3d	0.14342208
219	0xbcc5054d	-0.02405038
220	0xbd76b8d2	-0.060234852
221	0xbce300b1	-0.02771029
222	0x3d9d7782	0.0768881
223	0xbc79a7f5	-0.015237798
224	0x3a6f2471	0.00091225567
225	0xbda1abd3	-0.07894101
226	0x3d6bbe80	0.05755472
227	0xbd8cdb03	-0.06877711
228	0xbd0a46e3	-0.03375901
229	0x3c2e5907	0.010641343
230	0xbd8a520c	-0.067539304
231	0xbcba8acc	-0.022771262
232	0xbda008d1	-0.078141816
233	0x3c8a8e0c	0.016913436
234	0xbc95a16e	-0.018265452
235	0xbe0bfe52	-0.13671234
236	0x3d3e8084	0.04650928
237	0x3cacecdf	0.021109043
238	0x3dc520c7	0.096253924
239	0x3e18a8fc	0.14908212
240	0xbe020402	-0.12696841
241	0x3d41da8d	0.047327567
242	0xbd9bd0a4	-0.076081544
243	0x3d673cc8	0.05645445
244	0x3cbeef99	0.023307608
245	0x399b2a29	0.00029595316
246	0xba0ed90c	-0.00054492126
247	0xbe1d500a	-0.15362564
248	0x3dc16361	0.09442783
249	0x3d613671	0.05498356
250	0xbd3c2b8a	-0.04593996
251	0x3d8a3bdc	0.067496985
252	0xbbeea078	-0.007282313
253	0xbd251c8d	-0.04031043
254	0x3dd9e66e	0.10639654
255	0xbd755b95	-0.059901793

fcs.0.bias f4 [256]
0	0x3d0f1d42	0.03494001
1	0xbdeee154	-0.11664072
2	0x3c7a99bd	0.015295443
3	0x3e0aabbe	0.13542077
4	0xbdacb0fb	-0.08432194
5	0xbd4a60cb	-0.049408715
6	0xbd8b7364	-0.068091184
7	0xbd80eb6f	-0.062949054
8	0xbd89d2cf	-0.06729662
9	0x3d4e3443	0.05034281
10	0xbdbe9545	-0.09305815
11	0x3d1e41ed	0.03863709
12	0x3d3a5a72	0.04549641
13	0x3c3e6c60	0.011622518
14	0xbd3f8256	-0.046755157
15	0x3c9d6891	0.0192149
16	0xbd0fbdc8	-0.0350931
17	0x3d1cb74a	0.038260736
18	0xbc0c2b66	-0.008555269
19	0xbdd15172	-0.102206126
20	0xbdad63ea	-0.08466323
21	0x3ddd38d3	0.10801854
22	0xbe19d497	-0.15022503
23	0xbdd2b4dd	-0.10288403
24	0x3d51d1fd	0.05122565
25	0xbdf2f3d7	-0.11862915
26	0x3d1c6462	0.03818167
27	0xbd5a8d38	-0.053357333
28	0xbdee333a	-0.116308644
29	0x3d89d5f9	0.06730265
30	0x3b2109a0	0.0024572387
31	0x3e0d9091	0.13824679
32	0xbe53943e	-0.20662019
33	0x3be3bff7	0.006950374
34	0xbdad1f4f	-0.08453237
35	0xbd0a8b70	-0.033824384
36	0xbd342afa	-0.0439863
37	0xbe054e57	-0.13018166
38	0xbd766855	-0.060158093
39	0xbdbcd88e	-0.09220992
40	0x3d3bdade	0.045863025
41	0xbd9f63ca	-0.07782705
42	0x3d3f4cce	0.046704106
43	0xbc61cbf1	-0.013781534
44	0xbda4dcf5	-0.08049957
45	0xbd879b2d	-0.06621394
46	0x3d9c98f3	0.0764636
47	0xbda166fe	-0.07880972
48	0xbde63255	-0.11240069
49	0x3ceba803	0.028766638
50	0x3d4a0cd1	0.04932863
51	0xbe6565b4	-0.22402078
52	0x3d980d6d	0.07424436
53	0x3c41acae	0.011820955
54	0x3bccddd0	0.006252028
55	0x3dc33702	0.09531976
56	0xbd8f8c79	-0.07009215
57	0xbdc7f999	-0.09764404
58	0xbb5dc41c	-0.0033838814
59	0x3d87dabb	0.066335164
60	0x3d5f7eb3	0.05456419
61	0xbd021859	-0.0317615
62	0x3e1cac6e	0.15300152
63	0x3dc3294f	0.09529363
64	0x3bdb5348	0.0066932775
65	0xbd9b94e8	-0.07596761
66	0xbd83d22d	-0.06436572
67	0xbd2f1762	-0.04274691
68	0x3d17619f	0.036958333
69	0xbca89a33	-0.02058134
70	0x3dcdb8af	0.10044991
71	0x3cb7fe5e	0.022460159
72	0x3c831c81	0.016004803
73	0xbd8f7d4e	-0.07006322
74	0xbc4aa41e	-0.01236823
75	0xbda54cae	-0.08071266
76	0x3d83af57	0.06429928
77	0xbd1783a5	-0.03699078
78	0xbd8f9f6b	-0.070128284
79	0xbbc95ebc	-0.0061453264
80	0x3d16b098	0.036789507
81	0x3c15fc3d	0.009154377
82	0xbdba60ae	-0.091004714
83	0x3db29c15	0.087211765
84	0xbd4b60b1	-0.04965276
85	0x3d99183c	0.074753255
86	0x3d650e2c	0.05592172
87	0xbbc1714e	-0.0059033995
88	0x3d203f22	0.03912271
89	0x3cd1079a	0.02551632
90	0x3c2978d1	0.010343746
91	0x3db93ccf	0.090448014
92	0xbde0ba5a	-0.10973044
93	0xbcb201e5	-0.021729419
94	0x3c878700	0.016543865
95	0xbe068044	-0.13134867
96	0xbd4f2aa9	-0.050577793
97	0xbd0894dc	-0.03334509
98	0x3bf04a72	0.0073330933
99	0xbcd1fe30	-0.025633901
100	0x3dc761ee	0.097354755
101	0xbddf0819	-0.108902164
102	0x3d4fdf4f	0.050750073
103	0xbd517479	-0.051136468
104	0xbdea8db5	-0.1145281
105	0xbcf53b0e	-0.029935386
106	0x3c3666ec	0.011132937
107	0xbd9f333d	-0.07773445
108	0xbdb27ccc	-0.08715209
109	0xbd819fdb	-0.06329318
110	0x3d5edb95	0.05440863
111	0xbe0aefef	-0.1356809
112	0x3da1e9a3	0.07905891
113	0x3d9e9bf9	0.07744593
114	0xbc5ad680	-0.013356805
115	0x3d6a358d	0.057179976
116	0xbd34939e	-0.04408609
117	0xbdc321f1	-0.09527958
118	0xbe34e4d9	-0.17665423
119	0xbd18f33c	-0.03734134
120	0x3ddaec50	0.10689604
121	0xbe39d345	-0.18146999
122	0x3d122e34	0.035688594
123	0xbd8d759b	-0.06907197
124	0xbe029fb5	-0.12756236
125	0x3dc49344	0.09598401
126	0x3cfa9c3c	0.030592076
127	0xbdf1884d	-0.117935754
128	0xbc8c0e80	-0.017096758
129	0x3d01fcdb	0.031735282
130	0xbd5c443a	-0.053776003
131	0xbc5cbf73	-0.013473379
132	0xbd8f9b31	-0.07012022
133	0x3de84d3b	0.113428555
134	0x3d1ee7a5	0.038795132
135	0x3d81e962	0.06343342
136	0x3d26dcab	0.04073779
137	0xbda42d32	-0.08016433
138	0x3cac64de	0.021044191
139	0xbc972af9	-0.018453108
140	0xbd901e46	-0.07037024
141	0xbc90f794	-0.01769618
142	0xbb03b53f	-0.0020097045
143	0xbd47e187	-0.048799064
144	0x3deefc53	0.11669221
145	0x3c7bb84b	0.015363763
146	0x3d0051c3	0.031327974
147	0xbd2d0303	-0.0422392
148	0xbcabe625	-0.020983765
149	0xbe064bb5	-0.13114817
150	0x3be8502f	0.0070896368
151	0x3e2cd267	0.16877137
152	0x3cc72bac	0.024312817
153	0x3cc907b2	0.024539802
154	0xbb177c4a	-0.0023114854
155	0xbd4a3e0b	-0.049375575
156	0xbc00b80b	-0.007856379
157	0xbe1d5859	-0.15365733
158	0x398d0d00	0.00026903301
159	0xbb05ceb6	-0.0020417399
160	0xbe31f840	-0.17379856
161	0x3b203c02	0.002444983
162	0xbccc9fd4	-0.024978556
163	0xbdc28200	-0.09497452
164	0x3c959c88	0.018263116
165	0x3df56d90	0.11983788
166	0xbd69fd55	-0.057126362
167	0xbdc14d76	-0.094386026
168	0x3d8df5f8	0.069316804
169	0xbdcd1089	-0.100129195
170	0x3caf9cdc	0.021437101
171	0x3b8e6dff	0.0043466086
172	0x3cedd620	0.029032767
173	0x3da9311d	0.08261321
174	0xbcc185c0	-0.023623347
175	0xbce9c046	-0.028534066
176	0x3c62f9cf	0.013853504
177	0xbde674a1	-0.11252714
178	0xbe30ec53	-0.1727765
179	0xbc8295f2	-0.01594064
180	0xbdb3b510	-0.08774769
181	0xbdfc643a	-0.12323804
182	0x3d754142	0.059876688
183	0xbd1a19c1	-0.037622217
184	0xbe70eb7c	-0.2352733
185	0x3e281546	0.16414365
186	0xbdd118cb	-0.10209807
187	0x3e076fa6	0.13226184
188	0xbd4bf9dd	-0.049798835
189	0x3d980c0f	0.07424175
190	0x3df3ccc6	0.11904292
191	0xbbb079d6	-0.0053856177
192	0x3d18d906	0.037316345
193	0xbd4a7f82	-0.049438007
194	0xbd753074	-0.05986066
195	0xbd06a3fb	-0.032871228
196	0x39aa93ec	0.00032535137
197	0xbd168d11	-0.036755625
198	0xbddea98c	-0.10872182
199	0xbdc6550d	-0.09684191
200	0x3dc432cc	0.09580001
201	0x3c872693	0.016497886
202	0x3c230d74	0.009951938
203	0xbdb8ef39	-0.09030003
204	0xbdeed3e8	-0.11661512
205	0x3d5779a3	0.052606236
206	0xbd89fec4	-0.06738046
207	0xbd49b13a	-0.049241282
208	0x3d03be09	0.032163654
209	0xbd1f7196	-0.038926683
210	0x3cc5bdae	0.024138298
211	0x3c42974f	0.011876895
212	0xbe011a0f	-0.12607597
213	0xbdd5c339	-0.104376264
214	0xbd754975	-0.059884507
215	0xbdb6703a	-0.08908124
216	0xbe03f671	-0.12886979
217	0xbcfc1ab4	-0.030774452
218	0x3c724f8b	0.014789472
219	0xbe24e2a6	-0.16102085
220	0xbe030349	-0.12794222
221	0x3d4c0ee0	0.049818873
222	0xbc4b0388	-0.012390979
223	0xbe31ab43	-0.17350487
224	0xbb8bb72f	-0.0042637805
225	0x3dbdbe84	0.092648536
226	0x3dbbe073	0.0917367
227	0xbd9bcfc7	-0.0760799
228	0xbd615c90	-0.055019915
229	0x3c842330	0.01613006
230	0x3cc6a713	0.02424959
231	0xbd666e57	-0.056257572
232	0xbe117d39	-0.14207925
233	0xbd8461df	-0.0646398
234	0xbc38687a	-0.011255378
235	0xbdc37725	-0.095442094
236	0xbd6c1d0e	-0.057644896
237	0xbd4a9c72	-0.049465604
238	0xbd1e6e55	-0.03867944
239	0xbe0e84b0	-0.13917804
240	0x3d06693b	0.0328152
241	0xbd2ec776	-0.04267069
242	0x3d48661a	0.048925497
243	0x3d9b7122	0.07589938
244	0xbdf4a717	-0.11945932
245	0x3bb0a53d	0.0053907917
246	0xbc1b8c47	-0.009493894
247	0x3d8c4ff9	0.06851191
248	0x3da9a2de	0.082830176
249	0x3d57e8a0	0.052712083
250	0x3d8c9814	0.06864944
251	0x3da301c2	0.0795932
252	0xbd304f5c	-0.043044433
253	0xbe07e711	-0.13271739
254	0xbd65bf38	-0.056090564
255	0xbe2edfd4	-0.17077571

fcs.1.weight f4 [256, 256]
0	0x3d537a3c	0.051630244
1	0x3cd2e83f	0.02574551
2	0x3de12162	0.109926954
3	0xbcf1ce6e	-0.029517379
4	0xbd1a37ed	-0.03765099
5	0xbe40339d	-0.18769689
6	0xbcd53142	-0.026024465
7	0x3d67aaf7	0.05655953
8	0xbb5a9d93	-0.0033358082
9	0x3df1ded6	0.11810081
10	0xbe2485a7	-0.1606661
11	0x3e05ea0c	0.13077563
12	0x3c7afe83	0.015319469
13	0xbd9fd961	-0.078051336
14	0x3d757b32	0.05993194
15	0xbe996668	-0.29960942
16	0x3e0f9201	0.1402054
17	0x3d59e84a	0.053200044
18	0xbd3cb092	-0.046066828
19	0x3d723a5c	0.059137687
20	0xbd7f8d9c	-0.06239091
21	0x3da77cb5	0.08178083
22	0xbd7bfbaf	-0.06151932
23	0x3dc4640e	0.095893964
24	0x3c6f9ff8	0.014625542
25	0xbb15b942	-0.0022846018
26	0x3dc98ea6	0.09841661
27	0xbe106e04	-0.14104468
28	0xbc691804	-0.014226917
29	0xbcc4e2d9	-0.02403395
30	0xbdeabef5	-0.114622034
31	0x3e0f6c03	0.14006047
32	0xbe53b51b	-0.20674555
33	0xbe2d1258	-0.16901529
34	0xbb966db8	-0.004590716
35	0xbd19b569	-0.03752652
36	0xbcc0f6c8	-0.023555174
37	0xbd9d95d7	-0.07694595
38	0x3df4a153	0.11944833
39	0xbcc8256c	-0.024431907
40	0x3c6cdae1	0.014456482
41	0x3d478192	0.048707552
42	0xbdacc4b2	-0.08435954
43	0x3ce7b5f5	0.028285006
44	0xbb449cc5	-0.0030000668
45	0xbb6a0193	-0.0035706505
46	0x3d2f7235	0.042833526
47	0x3cd061e9	0.025437312
48	0xbdf08a1b	-0.117450915
49	0x3d6273b5	0.055286128
50	0xbda62a50	-0.08113539
51	0x3da3ab21	0.079916246
52	0xbdada9a6	-0.084796235
53	0x3e26a188	0.16272557
54	0x3d628c21	0.05530942
55	0x3d0c2ae0	0.034220576
56	0xbe1cfc21	-0.15330555
57	0xbd2a69c8	-0.041604787
58	0xbdeb200b	-0.11480721
59	0x3dd5fedc	0.10449001
60	0x3d8197fb	0.06327816
61	0xbdc4571d	-0.09586928
62	0xbc0a52cb	-0.008442591
63	0x3e00f9fa	0.12595358
64	0x3d91e2aa	0.07123311
65	0xbc6dee63	-0.014522168
66	0xbcc8d6ea	-0.024516542
67	0x3c102b74	0.0087994225
68	0xbcaa6e58	-0.02080457
69	0xbdfd9121	-0.12381197
70	0xbd2b391d	-0.041802514
71	0xbdb8141f	-0.08988213
72	0xbdd5a58f	-0.104319684
73	0xbdea4e5c	-0.11440727
74	0x3dd9962d	0.10624347
75	0x3d894709	0.06703002
76	0x3e075a54	0.13218051
77	0x3dedf661	0.11619259
78	0x3ceaa970	0.028645247
79	0x3ce9d250	0.028542668
80	0x3c4b41ff	0.012405871
81	0x3d221d9c	0.03957902
82	0x3d3a1220	0.04542744
83	0x3e2906be	0.16506478
84	0x3c734890	0.014848843
85	0x3d6a3bca	0.057185926
86	0xbd3bbb93	-0.04583318
87	0xbd2896ae	-0.041159324
88	0x3d40f9fe	0.04711341
89	0xbccac8f4	-0.024754025
90	0xbcc7c83f	-0.024387477
91	0xbdfbdbfe	-0.122978196
92	0xbdc3ddac	-0.09563765
93	0xbe259e4a	-0.16173664
94	0x3dd59ffd	0.10430906
95	0x3d9f3694	0.07774082
96	0xbbc26639	-0.005932596
97	0x3dc069d0	0.09395182
98	0xbcae9b95	-0.021314422
99	0xbc9e224d	-0.019303465
100	0xbd472dd4	-0.04862769
101	0xbb0639f1	-0.0020481313
102	0xbe158f39	-0.14605416
103	0xbe2a9155	-0.16657002
104	0xbd108b4e	-0.0352891
105	0xbdceba0a	-0.10094078
106	0xbc94aef6	-0.018149834
107	0xbe42a887	-0.190096
108	0xbd54207c	-0.051788792
109	0xbe0992fe	-0.1343498
110	0x3df02828	0.11726409
111	0x3e36e6a2	0.17861417
112	0xbe03f692	-0.12887028
113	0xbda55590	-0.080729604
114	0x3d1b9b67	0.03799
115	0xbe264df9	-0.16240682
116	0xbb3b7623	-0.002860435
117	0x3e0ebf57	0.13940178
118	0x3d7d93d4	0.061908558
119	0x3d2d868b	0.04236464
120	0xbd6c4822	-0.05768598
121	0xbdb73b92	-0.08946909
122	0xbcea5e3b	-0.028609386
123	0xbe132961	-0.14371254
124	0xbe9a701b	-0.30163655
125	0x3d12a1be	0.03579878
126	0x3c928822	0.017887179
127	0xbcc70bef	-0.024297683
128	0x3dc19388	0.094519675
129	0xbcfbd656	-0.030741852
130	0x3c430968	0.011904098
131	0x3d62061c	0.055181608
132	0x3dcbfac9	0.09959943
133	0x3dbb279a	0.09138413
134	0xbdafe779	-0.08589072
135	0x3e29ecef	0.16594289
136	0x3c8748b5	0.016514162
137	0x3e1fca34	0.15604478
138	0xbd81db28	-0.06340629
139	0x3ccb1448	0.024789944
140	0x3d0a9690	0.033834994
141	0xbd1b7815	-0.037956316
142	0xbd600bdb	-0.054698806
143	0xbd58aee3	-0.05290116
144	0xbd15650a	-0.03647331
145	0x3e413511	0.188679
146	0xbe003d84	-0.12523466
147	0x3d275ec3	0.040861856
148	0xbe013429	-0.12617554
149	0xbddf324f	-0.108982675
150	0x3d4ae55b	0.049535137
151	0x3c22dc9b	0.009940292
152	0xbdba753e	-0.091043934
153	0x3ddd45e3	0.108043455
154	0x3be6be5d	0.007041736
155	0x3d32e050	0.043670952
156	0xbd7ef383	-0.06224395
157	0xbe04b776	-0.1296061
158	0xbdcfe215	-0.101505436
159	0xbddbf23d	-0.10739563
160	0x3d302cc6	0.04301145
161	0xbbfce4c3	-0.0077177
162	0x3dea2ee6	0.114347264
163	0xbea5c97b	-0.3238028
164	0x3d8b4de3	0.06801965
165	0x3d1e560d	0.038656283
166	0x3e06b30f	0.13154243
167	0x3c1d6656	0.009606918
168	0x3da690a7	0.08133059
169	0xbdd9971a	-0.106245235
170	0x3c140bd0	0.009036019
171	0x3d8fd411	0.0702287
172	0x3ca12b43	0.01967395
173	0x3da81e7f	0.08208942
174	0x3d1eaee8	0.038741022
175	0x3e097247	0.134225
176	0x3e1b35cc	0.1515724
177	0x3d52370b	0.051322024
178	0xbd709d58	-0.058743805
179	0xbd70ffc9	-0.058837686
180	0xbcfff941	-0.031246783
181	0x3daa8fcd	0.08328209
182	0xbd6840f4	-0.05670257
183	0xbcb161c4	-0.021653064
184	0x3c84a8f4	0.016193844
185	0x3d2fbd0d	0.042904902
186	0x3c15cfcd	0.009143782
187	0xbeba3aee	-0.36373085
188	0x3c33c362	0.010971876
189	0xbc4db137	-0.012554458
190	0x3cdf5619	0.027262734
191	0xbdca5832	-0.09880103
192	0xbe3e0e6f	-0.18560193
193	0xbdb3feae	-0.08788811
194	0xbe0ecd4f	-0.13945507
195	0xbab935a9	-0.0014130372
196	0xbd8f04f2	-0.06983365
197	0xbe1a4988	-0.15067112
198	0x3bdf986c	0.00682359
199	0x3cebb554	0.028772987
200	0x3d8b093f	0.06788873
201	0x3d8f7636	0.07004969
202	0x3d6d9b94	0.0580097
203	0xbeaf5b5d	-0.34249392
204	0x3d08c375	0.033389527
205	0x3e06458c	0.13112468
206	0x3b9993f6	0.004686828
207	0x3ba21cf4	0.004947299
208	0xbd16dcd3	-0.036831688
209	0x3d3cc1fc	0.046083435
210	0xbd13a0ea	-0.03604213
211	0xbcabfaa3	-0.020993536
212	0xbc5f0637	-0.013612322
213	0xbbca3027	-0.006170291
214	0x3d7578e9	0.059929762
215	0xbe2b355e	-0.16719577
216	0x3cbed6a4	0.023295708
217	0xbd9393f0	-0.07205951
218	0x3e0a60ac	0.1351344
219	0x3d119888	0.035545856
220	0xbd08bfab	-0.033385914
221	0xbc1fa12b	-0.009743015
222	0x3dc08d3f	0.094019406
223	0x3d6cf4af	0.057850536
224	0x3d6ee954	0.058327988
225	0xbb811f2e	-0.0039404845
226	0x3d281be4	0.041042224
227	0x3e17b938	0.14816749
228	0xbcab8eb2	-0.020942066
229	0x3cc27cf9	0.023741232
230	0x3cb4f223	0.022088116
231	0xbdb18511	-0.086679585
232	0xbd50192c	-0.050805256
233	0xbdd690ea	-0.10476859
234	0x3dee776d	0.116438724
235	0xbe3aebe4	-0.18254048
236	0x3d80cf9e	0.062896
237	0x3e3eb059	0.18621959
238	0x3da79dae	0.08184372
239	0xbd728938	-0.059212893
240	0x3c2c6011	0.010520951
241	0x3dd09065	0.10183791
242	0x3bcd4c3a	0.0062651904
243	0x3e039f8a	0.12853828
244	0xbe05c16a	-0.13062063
245	0x3d7dc40e	0.06195455
246	0xbd7078c6	-0.05870893
247	0x3da9dae9	0.08293707
248	0xbd91359e	-0.07090305
249	0x3dbe8d0f	0.093042485
250	0xbdfbfc71	-0.12304009
251	0xbe4e643f	-0.20155428
252	0xbd0b1786	-0.03395798
253	0xbe2f0a0d	-0.17093678
254	0x3cb6b00d	0.022300744
255	0xbe90d744	-0.28289235

fcs.1.bias f4 [256]
0	0x3e383bb9	0.17991532
1	0x3dd99006	0.106231734
2	0x3e051c41	0.1299906
3	0x3dc8b039	0.09799237
4	0x3dc86c6a	0.09786303
5	0x3d83442d	0.06409488
6	0x3e015282	0.1262913
7	0x3e29fecf	0.16601108
8	0xbc540dec	-0.012942772
9	0x3e2f958f	0.17146896
10	0x3d84ae1e	0.06478523
11	0x3dc44ff7	0.095855646
12	0x3d87d518	0.06632441
13	0x3dcbc766	0.099501416
14	0xbe11e175	-0.14246161
15	0x3df4a884	0.11946204
16	0x3d2d48e1	0.04230583
17	0x3d84ba9c	0.064809054
18	0x3d90c410	0.07068646
19	0x3d966e18	0.073452175
20	0x3d996571	0.074900515
21	0x3d87fe84	0.06640342
22	0x3da6128e	0.08109008
23	0x3e1063b2	0.1410053
24	0x3bbf83bb	0.005844561
25	0x3d9f744d	0.077858545
26	0x3dbf800b	0.09350594
27	0xbb9f46c6	-0.004860732
28	0x3dfb1359	0.1225955
29	0x3c065be5	0.00820062
30	0xbcbe9546	-0.023264538
31	0x3dbd1166	0.09231834
32	0x3db0e5c2	0.08637573
33	0x3e583202	0.21112826
34	0x3d8014d1	0.062539704
35	0x3dcf4354	0.10120264
36	0x3d836d38	0.06417316
37	0x3daa2253	0.08307328
38	0x3d822802	0.06355287
39	0x3e2b0bc3	0.16703705
40	0x3df22f0f	0.11825382
41	0x3e0e7b0b	0.13914125
42	0x3dd02e90	0.10165131
43	0x3d07be4a	0.03314046
44	0x3d331836	0.04372426
45	0x3d80d5a5	0.062907495
46	0x3e00c620	0.12575579
47	0x3d88246a	0.066475704
48	0x3e1705dc	0.14748329
49	0x3e14d552	0.145345
50	0x3d9e1207	0.07718282
51	0xbbceb134	-0.0063077454
52	0x3e6622bf	0.22474192
53	0x3d875703	0.06608393
54	0x3e2c8132	0.16846159
55	0x3d5cd130	0.053910434
56	0x3da09fcb	0.07842978
57	0x3d9f6f3c	0.07784888
58	0x3d334955	0.043771107
59	0x3d7e2017	0.062042322
60	0xbda05986	-0.07829575
61	0x3df85616	0.121257946
62	0x3d8e883e	0.0695958
63	0x3e042ddb	0.12908117
64	0x3e0e0f87	0.1387311
65	0x3dbd0ccb	0.09230956
66	0x3d86f789	0.06590182
67	0x3e0a6b8c	0.13517588
68	0x3e00c2b9	0.12574281
69	0x3e17a636	0.14809498
70	0x3dba2226	0.090885445
71	0x3e1199bb	0.142188
72	0x3dd50d71	0.10402954
73	0x3de89dba	0.11358209
74	0x3e463891	0.19357516
75	0x3b1a75fb	0.0023568857
76	0x3daf0660	0.08546138
77	0x3e1116b0	0.14168811
78	0x3e3c5b99	0.18394317
79	0x3d8c448c	0.06849012
80	0x3d8c97fe	0.06864928
81	0xbdec783b	-0.1154637
82	0x3e3e0bc3	0.18559174
83	0x3dffdfaa	0.124938324
84	0xbcabf270	-0.020989627
85	0x3e672bfc	0.22575372
86	0x3d9c21cc	0.07623634
87	0x3dd6b484	0.104836494
88	0x3d0e5cd1	0.034756485
89	0x3d2ca272	0.042147107
90	0x3db8daab	0.090260826
91	0x3e80290d	0.2503132
92	0x3dba30f5	0.09091369
93	0x3da96a35	0.082722105
94	0x3e04b06e	0.12957928
95	0x3e077569	0.13228382
96	0xbdf4ec14	-0.11959091
97	0x3e348723	0.17629676
98	0x3d4b1910	0.04958445
99	0x3da10780	0.07862759
100	0x3d98ece1	0.07467056
101	0x3df935cd	0.12168465
102	0x3dbfdb22	0.09367968
103	0x3e326204	0.17420202
104	0xbdb5d702	-0.088789
105	0x3d15951b	0.03651915
106	0xbc96a57d	-0.018389458
107	0x3d91ec0a	0.07125099
108	0x3db508f1	0.08839596
109	0x3e0d2511	0.13783671
110	0x3e3cbe02	0.18431857
111	0x3e2c204f	0.168092
112	0x3d74942a	0.059711613
113	0x3dfef5cc	0.12449226
114	0x3d1536d6	0.03642925
115	0x3e3d83e5	0.18507345
116	0x3d58c49e	0.052921884
117	0x3dd1d28e	0.10245238
118	0x3d81482e	0.06312595
119	0x3d523b52	0.051326104
120	0x3da24199	0.07922668
121	0x3d414c0c	0.047191665
122	0x3e34402c	0.17602605
123	0xbd922c31	-0.07137335
124	0x3cc81b83	0.024427181
125	0x3e312d37	0.17302404
126	0x3de9eb77	0.114218645
127	0x3da78b73	0.08180895
128	0x3da3d3da	0.07999392
129	0x3daa169e	0.08305095
130	0x3e148955	0.14505513
131	0x3d70ba02	0.05877114
132	0x3d9434a7	0.07236605
133	0x3e0ec969	0.1394402
134	0x3e67b5d1	0.22627951
135	0x3dc7850a	0.09742172
136	0x3e1f40cf	0.15552066
137	0x3db320c7	0.08746486
138	0x3e18ef20	0.14934969
139	0x3e19f4d3	0.150348
140	0x3d8a985f	0.06767344
141	0x3dbc6a6e	0.09199987
142	0x3ddbe906	0.10737805
143	0x3ce6123b	0.028084865
144	0x3dffc18c	0.12488088
145	0x3d8e117a	0.06936927
146	0x3e0f49d4	0.13993007
147	0x3d205878	0.03914687
148	0x3e257106	0.16156396
149	0x3e096a1c	0.13419384
150	0x3d6a2ab4	0.05716963
151	0x3dbeeb60	0.09322238
152	0x3db19ade	0.08672117
153	0x3dcbeea8	0.099576294
154	0x3dfe6cf6	0.124231264
155	0x3e0d6de4	0.13811451
156	0x3c45d109	0.012073764
157	0x3dc7e115	0.09759728
158	0x3e0bbcfc	0.1364631
159	0x3bd0ff89	0.0063781184
160	0xbdf682f8	-0.12036699
161	0x3d2ed0c5	0.042679567
162	0x3e29c2c9	0.16578211
163	0x3da68258	0.0813033
164	0x3e11f08f	0.14251922
165	0x3d9bcbe4	0.076072484
166	0x3d378263	0.04480208
167	0x3dd09171	0.10183991
168	0x3d945756	0.072432205
169	0x3dad9f0e	0.08477603
170	0x3e078307	0.13233577
171	0x3d3567d3	0.044288468
172	0x3e17a2c1	0.1480818
173	0x3d93942d	0.07205997
174	0x3d80e1d0	0.0629307
175	0x3d83fb95	0.0644447
176	0xbdbeb934	-0.093126684
177	0x3e17e61c	0.14833874
178	0x3e22a461	0.15883018
179	0x3d86873a	0.06568761
180	0x3daaf472	0.083474055
181	0x3e1bda8e	0.15220091
182	0x3e2ace84	0.16680342
183	0x3d98bb78	0.07457632
184	0x3dd44ca2	0.10366179
185	0x3d9c0ea7	0.07619982
186	0x3dabffac	0.08398375
187	0x3df6d7ee	0.12052904
188	0x3dd153da	0.102210715
189	0x3d7a7eef	0.06115621
190	0x3d770c09	0.060314212
191	0xbdfcd5e5	-0.12345485
192	0x3defb517	0.11704462
193	0x3e03efa3	0.12884383
194	0x3c1a4f09	0.0094182575
195	0x3d4dc475	0.050236184
196	0x3dffdd6a	0.12493403
197	0x3da6e02d	0.08148227
198	0x3ddfb95f	0.109240286
199	0x3d5d6806	0.054054283
200	0x3dc57b9b	0.096427165
201	0x3d9843f9	0.0743484
202	0x3e515504	0.20442587
203	0x3d593943	0.053033125
204	0x3dc67472	0.09690179
205	0xbe0c33c1	-0.13691618
206	0x3e1c89e0	0.1528697
207	0x3e2477a6	0.16061267
208	0x3dbfa6f4	0.09358016
209	0x3dd81eac	0.10552725
210	0x3dd583ea	0.10425551
211	0x3e41a108	0.18909085
212	0x3d61ee72	0.05515904
213	0x3dde4655	0.108532585
214	0x3cf609cf	0.030033974
215	0x3e1e7bc9	0.15476908
216	0x3e002893	0.12515478
217	0x3d7b1399	0.061297987
218	0x3dbe19ca	0.092822626
219	0x3d97aa04	0.07405475
220	0x3d378e83	0.044813644
221	0x3d34f90a	0.044182815
222	0x3d55dd9f	0.052213307
223	0x3dfb4384	0.12268737
224	0x3de627a9	0.11238033
225	0x3dd45d45	0.10369352
226	0x3d5b3776	0.05351969
227	0x3d95be09	0.07311637
228	0x3d9226db	0.07136317
229	0x3df9cc82	0.1219721
230	0x3db73944	0.089464694
231	0x3e03742c	0.12837285
232	0x3e019221	0.126534
233	0xbbb1f1b8	-0.0054304264
234	0x3dd3e1c6	0.10345797
235	0x3e27cb06	0.16386041
236	0x3d90624a	0.07049997
237	0x3dba69a0	0.091021776
238	0x3dff8862	0.12477185
239	0x3e07beb4	0.13256341
240	0x3dd9729a	0.10617562
241	0x3e0c0e66	0.13677368
242	0x3e118f4a	0.14214817
243	0xbc3c03b3	-0.011475491
244	0x3e0688a5	0.13138063
245	0x3dd89c03	0.10576632
246	0x3d9df7c2	0.07713272
247	0x3e0eb787	0.13937198
248	0x3ddc92ea	0.10770209
249	0x3de5bb15	0.11217324
250	0x3e0db4b1	0.1383846
251	0x3e28cc5e	0.1648421
252	0xbdb0eb3b	-0.08638617
253	0x3e0b5c0f	0.13609336
254	0x3d9f70f5	0.07785217
255	0xbc8b8258	-0.017029926

fcs.2.weight f4 [256, 256]
0	0xbe8eb653	-0.27873477
1	0xbc2cda8e	-0.010550154
2	0x3e0d543f	0.13801669
3	0x3dfdde16	0.12395875
4	0xbc9e1a2c	-0.01929959
5	0x3d600d3c	0.05470012
6	0x3c1ea5c3	0.009683075
7	0xbd9ff719	-0.07810802
8	0xbd4ab599	-0.04948959
9	0xbd0244fc	-0.03180407
10	0x3c7a923b	0.015293653
11	0xbcefed6d	-0.029288018
12	0xbce0f9a7	-0.027462794
13	0x3d93fcb3	0.07225933
14	0xbd9c47de	-0.07630895
15	0xbd9506c1	-0.07276679
16	0x3da358be	0.079759106
17	0xbd476522	-0.048680432
18	0x3d32e186	0.043672107
19	0xbd494290	-0.049135745
20	0xbd2d7685	-0.042349357
21	0xbc8d72a1	-0.017266573
22	0xbd76523e	-0.060137026
23	0x3b87f16b	0.0041486523
24	0x3ddd3a96	0.1080219
25	0x3daa920d	0.08328638
26	0x3dade93f	0.08491754
27	0xbad97612	-0.0016590974
28	0xbe0d018a	-0.13770118
29	0x3dc7c958	0.097552
30	0xbc16f0e5	-0.009212707
31	0x3ca42e79	0.020041691
32	0x3d966d65	0.07345084
33	0xbe792d77	-0.2433375
34	0xbd673169	-0.056443606
35	0x3d1d1171	0.03834671
36	0xbbdb42cd	-0.006691313
37	0xbcda10e0	-0.026619375
38	0xbd162e81	-0.036665443
39	0x3da40552	0.08008827
40	0x3e0429b7	0.12906538
41	0x3e431745	0.19051845
42	0xbd77d5ef	-0.060506757
43	0xbcee3891	-0.029079707
44	0x3df984a6	0.12183504
45	0x3d050a67	0.032480624
46	0xbd530fcd	-0.05152874
47	0x3d78f0c1	0.060776476
48	0xbcbd9479	-0.023142086
49	0x3d00224b	0.031282704
50	0xbd8d2ec9	-0.06893689
51	0x3d24cfa2	0.040237077
52	0xbdff3628	-0.12461501
53	0xbd0f0ba4	-0.03492321
54	0xbd909c4e	-0.07061063
55	0xbca6a767	-0.020343496
56	0x3c4ca7f2	0.012491213
57	0x3d04e0a7	0.032440808
58	0xbe1af577	-0.151327
59	0x3d1de97e	0.038552754
60	0xbd4c8911	-0.049935404
61	0xbc3cea7d	-0.011530516
62	0x3e1cb390	0.15302873
63	0x3d385f29	0.045012627
64	0xbdaa39b4	-0.08311787
65	0xbdd86cb5	-0.10567609
66	0x3d2e5ed8	0.04257092
67	0xbdde0327	-0.10840445
68	0xbaa1be3d	-0.0012340021
69	0xbe0f5a2b	-0.1399924
70	0xbe3fa6ba	-0.18715945
71	0x3d3a6209	0.04550365
72	0xbcd846e9	-0.026401
73	0xbe6843b3	-0.22682075
74	0xbe51fd2f	-0.20506738
75	0xbe393f8c	-0.18090647
76	0xbdabe43b	-0.08393141
77	0x3d454de0	0.04816997
78	0xbe56bb83	-0.20969968
79	0xbcaedde5	-0.021346042
80	0xbb2107cb	-0.0024571295
81	0x3e949626	0.29020804
82	0xbcf5c61c	-0.030001692
83	0x3dbfc568	0.09363824
84	0x3e02a580	0.12758446
85	0xbd12c102	-0.035828598
86	0xbd61975e	-0.055075996
87	0x3c6fb03e	0.014629422
88	0xbd4549d3	-0.048166107
89	0xbd920e8b	-0.0713168
90	0x3d61faa0	0.055170655
91	0xbe025e8d	-0.12731381
92	0x3dc4414c	0.09582767
93	0x3ddf7470	0.109108806
94	0xbc937b6a	-0.018003184
95	0x3d8a2444	0.06745198
96	0x3e042f00	0.12908554
97	0x3cb7936c	0.022409163
98	0x3e070fd4	0.13189632
99	0xbc86c223	-0.016449993
100	0x3d7375c2	0.059438474
101	0x3d6f9c82	0.058498867
102	0x3cae8699	0.021304416
103	0xbd56c937	-0.052437987
104	0x3d692c23	0.056926858
105	0x3c9bd44f	0.019022135
106	0x3db1d76c	0.086836666
107	0xbca4a1f0	-0.020096749
108	0x3cff6856	0.031177681
109	0xbdb30549	-0.087412424
110	0xbe88cc79	-0.267185
111	0xbd1630c0	-0.036667585
112	0xbc3c9c0d	-0.011511815
113	0xbe355cf4	-0.1771124
114	0xbcc0f5d0	-0.023554713
115	0x3e014068	0.12622225
116	0x3ce83de3	0.028349822
117	0x3d2c8e8a	0.042128123
118	0xbc7a82f1	-0.015290008
119	0xbddf7259	-0.10910482
120	0x3b9716ee	0.0046108877
121	0xbe5fff7a	-0.218748
122	0xbe3712ed	-0.17878313
123	0x3e2e9b23	0.17051367
124	0x3dc1ef78	0.09469503
125	0x3db24e25	0.08706311
126	0xbdeeba37	-0.116566114
127	0xbcd11827	-0.025524212
128	0x3d6cccd8	0.05781254
129	0xbaf74df3	-0.0018867835
130	0x3d1f2a74	0.038858846
131	0xbd1b6e3d	-0.03794693
132	0x3da364dd	0.079782225
133	0x3d315e59	0.043302868
134	0xbd8dd0bd	-0.06924579
135	0x3e9007b3	0.28130874
136	0xbd9302ff	-0.07178306
137	0x3da62ad8	0.081136405
138	0x3d10eb00	0.035380363
139	0xbd943e21	-0.07238413
140	0x3b8c0d85	0.0042740726
141	0xbde2f6bb	-0.11082216
142	0x3d7f895b	0.06238685
143	0xbd13a572	-0.036046453
144	0xbe8352b0	-0.25649023
145	0xbdf0f7db	-0.11766025
146	0x3aba7d39	0.0014227993
147	0xbd5d7f2c	-0.05407636
148	0xbdd1dabd	-0.10246799
149	0xbd79b1d2	-0.0609606
150	0xbc5da320	-0.013527662
151	0x3c68b285	0.014202719
152	0x3dcfd361	0.10147739
153	0x3b91331a	0.0044311406
154	0x3d86c24c	0.06580028
155	0x3d53f164	0.05174388
156	0x3d24f3c5	0.04027154
157	0x3d1721ab	0.036897343
158	0xbd7dc57f	-0.061955925
159	0xbe09c731	-0.13454892
160	0xbd476820	-0.048683286
161	0x3e5364bd	0.20643897
162	0x3c0806da	0.008302415
163	0xbd65970c	-0.056052253
164	0xbdb94146	-0.09045653
165	0x3d29444a	0.04132489
166	0xbc408953	-0.011751491
167	0x3cebff49	0.028808253
168	0xbd097ec0	-0.033568144
169	0xbd280b13	-0.041026186
170	0x3de862f3	0.11346998
171	0x3cd7906b	0.026313981
172	0xbd7cb75c	-0.061698303
173	0x3d74c788	0.0597606
174	0xbd3c6709	-0.0459967
175	0xbd59165b	-0.052999835
176	0xbca7917a	-0.02045511
177	0x3b948c27	0.004533309
178	0xbdb75466	-0.089516446
179	0xbe22535c	-0.15852112
180	0xbbbd921d	-0.0057852403
181	0xbd8bc6f5	-0.068250574
182	0xbe91eb89	-0.28500012
183	0x3c575c6f	0.0131445965
184	0x3bd25317	0.0064185965
185	0x3ac8ac6d	0.0015310176
186	0x3d6f9892	0.05849511
187	0xbdd41d72	-0.10357179
188	0xbe0be35b	-0.13660948
189	0x3e2c061b	0.16799204
190	0xba13cd9b	-0.00056382426
191	0xbc8397a0	-0.016063511
192	0xbe9ae9cf	-0.30256507
193	0xbdb0d202	-0.08633806
194	0xbbe20118	-0.006897103
195	0x3a51ebc4	0.0008007849
196	0xbbdd2835	-0.006749178
197	0xbda596c2	-0.080853954
198	0x3c56f4a7	0.013119853
199	0xbd161b19	-0.036646936
200	0xbcb7c8d1	-0.022434624
201	0x3d9372a4	0.071996
202	0xbca44716	-0.020053428
203	0xbbd82312	-0.0065959776
204	0xbd80e6a9	-0.06293995
205	0x3c02af7d	0.00797641
206	0xbe271d21	-0.16319706
207	0x3e0ee864	0.13955837
208	0xbde3f8bf	-0.11131429
209	0xbdd97468	-0.10617906
210	0xbe08ec44	-0.13371378
211	0x3c8f410f	0.017487077
212	0xbc6a312f	-0.014293953
213	0xbd7333f1	-0.059375707
214	0xbdce1b7c	-0.10063836
215	0xbd875df7	-0.06609719
216	0x3ca58b9e	0.020208176
217	0xbd1b2889	-0.037880454
218	0xbd44fe94	-0.048094347
219	0xbbd6e58c	-0.006558126
220	0x3ce17fdc	0.027526788
221	0xbe44a167	-0.19202195
222	0x3d096934	0.033547595
223	0x3c8a95d5	0.016917149
224	0x3d8a3df8	0.06750101
225	0xbe40477a	-0.18777266
226	0x3c989f7d	0.018630737
227	0xbd6d9186	-0.05800011
228	0xbdb2ac2b	-0.08724245
229	0xbdb488cd	-0.08815155
230	0x3bdccf3a	0.0067385705
231	0xbe884414	-0.2661444
232	0x3b976af5	0.0046209046
233	0x3e5268a7	0.20547734
234	0x3e06dcaa	0.13170114
235	0xbb7436b7	-0.0037264058
236	0xbde16d67	-0.11007195
237	0xbc2c0ce4	-0.01050112
238	0x3cd9c53f	0.026583312
239	0x3d36a6b2	0.044592567
240	0xbc4a13e4	-0.012333844
241	0xbdb38c4b	-0.08766993
242	0xbdacaef8	-0.0843181
243	0xbda4cf4d	-0.08047352
244	0xbde7be79	-0.11315627
245	0x3e04d3b9	0.12971391
246	0x3cf89623	0.030345028
247	0xbdb3b2b4	-0.08774319
248	0xbd1732ca	-0.03691367
249	0x3cfcb495	0.030847827
250	0xbe0d9801	-0.13827516
251	0xbd9a19c7	-0.07524448
252	0x3caf03d7	0.021364136
253	0xbe038a41	-0.12845708
254	0xbe212580	-0.15736961
255	0x3df52192	0.11969294

fcs.2.bias f4 [256]
0	0xbcd409c9	-0.025883572
1	0x3e5bcc5c	0.21464676
2	0x3e02fb13	0.1279109
3	0x3da38b8a	0.07985599
4	0x3e253ca9	0.16136421
5	0x3d4cb867	0.049980547
6	0x3e0a8477	0.13527094
7	0xbdd9acf7	-0.106286936
8	0x3e2f3d01	0.17113115
9	0x3df6d577	0.12052434
10	0x3e2be396	0.16786036
11	0x3e821769	0.25408486
12	0x3e70a52e	0.23500511
13	0x3d90317a	0.07040687
14	0x3e0109dc	0.12601417
15	0x3e17b0fa	0.14813605
16	0x3e0109a9	0.12601341
17	0x3d9c2501	0.076242454
18	0x3e47fe3c	0.19530576
19	0x3ddd81ef	0.108157985
20	0x3d99a879	0.07502837
21	0x3e1d160d	0.15340443
22	0x3e5c3380	0.2150402
23	0x3e191cb1	0.14952351
24	0x3e1bf130	0.15228724
25	0x3ba6a020	0.0050850064
26	0x3e439bb9	0.19102372
27	0x3d41a85b	0.047279697
28	0x3db4f485	0.08835701
29	0x3e3a6596	0.18202814
30	0x3c753133	0.014965343
31	0x3e150d61	0.14555885
32	0x3e1b5631	0.15169598
33	0x3d36f005	0.044662494
34	0x3e0c4b6d	0.13700648
35	0x3e22f7e0	0.1591487
36	0xbd0e270d	-0.03470521
37	0x3d31946f	0.043354448
38	0x3e8bfacc	0.2733978
39	0x3e56dc57	0.2098249
40	0x3d8b046a	0.06787951
41	0x3e2e631d	0.17029996
42	0x3e09ca80	0.13456154
43	0x3e52785a	0.20553723
44	0x3e2eb51f	0.1706128
45	0x3dc9cc1c	0.09853384
46	0x3d4e2f57	0.050338116
47	0x3dda31bd	0.10654018
48	0x3dbcd2da	0.09219904
49	0x3e0cefac	0.13763303
50	0x3e06f765	0.13180311
51	0x3da6ece7	0.08150654
52	0x3e463a62	0.19358209
53	0x3e4cd35d	0.20002504
54	0x3d5b84be	0.05359339
55	0x3e451424	0.19245964
56	0x3e14017b	0.1445369
57	0x3e59f39b	0.21284334
58	0x3d737028	0.059433132
59	0x3e189f25	0.14904459
60	0x3e510712	0.20412853
61	0x3e02ef03	0.12786488
62	0x3dbc2f6c	0.091887325
63	0x3d8633aa	0.06552823
64	0x3dcdfa82	0.10057546
65	0x3df2e895	0.11860768
66	0x3d94143b	0.07230421
67	0x3de09d6a	0.10967524
68	0x3d4f18f7	0.050560918
69	0x3d983543	0.07432034
70	0x3e76917f	0.2407894
71	0x3e0355de	0.12825724
72	0xbe032c45	-0.12809856
73	0x3d48f8e9	0.049065504
74	0x3e1893f3	0.14900188
75	0x3e04337d	0.12910266
76	0x3dd59cbc	0.10430285
77	0x3d218309	0.039431605
78	0x3e8653fd	0.26235953
79	0x3d1b06ce	0.037848286
80	0x3e08b391	0.13349749
81	0x3d5283fc	0.0513954
82	0x3dad1249	0.08450753
83	0x3d45e4b0	0.048313797
84	0x3e0af48e	0.13569853
85	0x3dcbebeb	0.09957107
86	0x3e0d8b48	0.13822663
87	0x3e486ab5	0.19571956
88	0x3e6f7e08	0.23387921
89	0x3dbcf718	0.09226817
90	0x3dbde58f	0.092723005
91	0x3e337f3a	0.17529002
92	0x3dfb9ea4	0.12286118
93	0x3daaf2a6	0.08347063
94	0x3e7b43f6	0.24537644
95	0x3e551d5e	0.20811984
96	0x3d816236	0.063175604
97	0x3da2c1b7	0.079471044
98	0x3da0967a	0.07841201
99	0xbe16c766	-0.14724502
100	0x3e32c619	0.17458381
101	0x3ded6e51	0.11593307
102	0x3d8e1992	0.06938471
103	0x3d56bb09	0.052424464
104	0x3e1e9b33	0.15488891
105	0x3dab030d	0.08350191
106	0x3e177d28	0.14793837
107	0x3e19f799	0.15035857
108	0x3e2afb3b	0.166974
109	0x3e13c59a	0.14430848
110	0x3e1d7d80	0.15379906
111	0x3ce86b3c	0.028371446
112	0x3d3295b6	0.043599807
113	0x3c3e5b60	0.011618465
114	0x3e21901b	0.15777628
115	0x3de082a0	0.10962415
116	0x3e2c4107	0.16821681
117	0x3e6100d0	0.21972966
118	0x3d994e6e	0.074856624
119	0x3e4b63f3	0.19862346
120	0x3d83a8f1	0.064287074
121	0x3dc77da9	0.09740765
122	0x3dc5bb15	0.09654824
123	0x3e36fe34	0.17870408
124	0x3d469be7	0.048488524
125	0x3ba45a86	0.005015674
126	0x3e30c281	0.17261697
127	0x3e6430c4	0.22284228
128	0x3c338423	0.010956797
129	0x3dc1b1e6	0.094577596
130	0x3d46d5ee	0.048543863
131	0x3e316e63	0.17327265
132	0x3db106f5	0.08643905
133	0x3e119368	0.14216387
134	0x3df95300	0.12174034
135	0x3e10323d	0.14081664
136	0x3e58a51a	0.21156731
137	0x3dbff8d7	0.09373634
138	0x3d9a3f7c	0.0753164
139	0x3e42db83	0.1902905
140	0x3ce9fc0d	0.02856257
141	0x3e4410a0	0.19146967
142	0x3d929355	0.071570076
143	0x3e1464b8	0.14491546
144	0x3d58f798	0.0529705
145	0x3e1e69f2	0.15470102
146	0x3df8fd93	0.121577404
147	0x3d911536	0.07084124
148	0x3e422f75	0.18963416
149	0x3dd67423	0.1047137
150	0x3e1f5334	0.15559083
151	0x3d916ce2	0.07100846
152	0x3d8c9761	0.06864811
153	0x3dd48fb1	0.103789695
154	0x3dfa0b25	0.12209157
155	0x3dac505a	0.08413763
156	0x3dab9f90	0.083800435
157	0x3d7e2622	0.062048085
158	0xbdd614b6	-0.10453169
159	0x3d894bbe	0.067039
160	0x3e652c01	0.22380067
161	0x3d99a9b2	0.0750307
162	0x3df7d3f1	0.121009715
163	0x3df13f5d	0.11779664
164	0x3e594862	0.21219018
165	0xbd95262b	-0.072826706
166	0x3e671556	0.22566733
167	0x3de822ff	0.113348
168	0x3ce37b7e	0.027768847
169	0x3e046c91	0.1293204
170	0x3dce5d40	0.1007638
171	0x3df72c71	0.120690234
172	0x3e281f83	0.16418271
173	0x3d470489	0.04858831
174	0x3e29eb00	0.16593552
175	0x3dc465d0	0.09589732
176	0x3e098acc	0.13431853
177	0x3e17b3b8	0.14814651
178	0x3d63aa65	0.055582423
179	0x3dbd5328	0.092443764
180	0x3dd9e2f8	0.10638994
181	0x3d8ca502	0.0686741
182	0x3d9fe7f4	0.078079134
183	0x3e032145	0.1280566
184	0x3e56e1ca	0.20984569
185	0x3d878115	0.06616417
186	0x3e2b3e14	0.167229
187	0x3e2e59b3	0.17026405
188	0x3dff67e4	0.124709874
189	0x3e36e0c3	0.17859177
190	0x3d8b7815	0.06810013
191	0x3e0c9318	0.13727987
192	0x3d997879	0.074936815
193	0xbca39c64	-0.019972034
194	0x3e34ed47	0.17668639
195	0x3e097428	0.13423216
196	0x3d747a06	0.059686683
197	0x3e45678e	0.19277784
198	0x3ddd1d78	0.10796636
199	0xbcf202c6	-0.029542338
200	0x3df9da88	0.12199885
201	0x3e2e85db	0.1704325
202	0x3d80f9b8	0.0629763
203	0x3dfb741a	0.12278004
204	0x3e46bf03	0.19408803
205	0x3e0f33d4	0.13984615
206	0x3e3609f2	0.17777231
207	0x3d934152	0.07190193
208	0x3e11a50b	0.14223115
209	0x3d7e6d3f	0.062115904
210	0x3d52ebfb	0.05149458
211	0x3e29b0ea	0.16571394
212	0x3e151a06	0.14560708
213	0x3e3e40a1	0.18579341
214	0x3e2575bc	0.16158193
215	0x3e07aca3	0.1324945
216	0x3e26c2ce	0.1628525
217	0x3dbf4f15	0.093412556
218	0x3e216016	0.1575931
219	0x3e4043b7	0.18775831
220	0x3e64a488	0.22328389
221	0x3d7d64e6	0.061863802
222	0x3e19e36d	0.15028162
223	0x3e5c07ba	0.21487322
224	0x3dba7de9	0.09106047
225	0x3dfb54f1	0.12272061
226	0x3caca37f	0.021074055
227	0x3db22bb5	0.08699743
228	0x3d7313b8	0.059344977
229	0x3e33fbfb	0.17576592
230	0x3d9804f2	0.07422818
231	0x3e271dd2	0.1631997
232	0x3e32ec1f	0.17472886
233	0x3dc8c76c	0.09803662
234	0x3e2b3d21	0.16722538
235	0x3b26df2c	0.002546261
236	0x3dd604a1	0.10450102
237	0x3dc1be1b	0.09460088
238	0x3e259f89	0.16174139
239	0x3dae0443	0.084969066
240	0xbcd1947c	-0.025583498
241	0x3e067479	0.13130368
242	0x3e1c78ab	0.15280406
243	0x3dc7a874	0.09748927
244	0x3e146266	0.14490661
245	0x3d9bd5f3	0.07609167
246	0x3dfdfc88	0.12401682
247	0x3e45089c	0.19241565
248	0x3d8d7173	0.06906404
249	0x3def983e	0.1169896
250	0x3de7b269	0.11313326
251	0x3e618b66	0.22025833
252	0x3dd91d59	0.10601301
253	0x3dd3bfe9	0.10339338
254	0x3dae5b65	0.08513526
255	0x3e1b77f5	0.15182479

last_fc.weight f4 [2, 256]
0	0x3b51e50e	0.0032027396
1	0xbb373566	-0.0027955412
2	0x3dc078ef	0.09398066
3	0x3c4b364b	0.012403081
4	0x3d381a79	0.04494712
5	0x3d85b376	0.0652837
6	0xbcb9eccf	-0.022695927
7	0x3e3f436d	0.18678065
8	0xbb267f99	-0.0025405644
9	0xbcc51add	-0.024060661
10	0xbe225105	-0.15851219
11	0x3c483969	0.012220719
12	0x3df5bb21	0.11998583
13	0x3c24db3c	0.010062035
14	0xbd0df65e	-0.034658782
15	0xbde1d271	-0.11026467
16	0xbba5b0ab	-0.005056461
17	0xbd9429cd	-0.07234535
18	0xbcbc4fa2	-0.02298719
19	0xbdd4a629	-0.10383255
20	0xbe031596	-0.12801203
21	0x3c406a7a	0.011744136
22	0xbd9c0162	-0.07617451
23	0xbbb9c05c	-0.005668683
24	0x3b86227e	0.0040934673
25	0xbce13973	-0.027493214
26	0xbc8ce50b	-0.01719906
27	0xbc0f9af0	-0.008764967
28	0x3ca28c83	0.019842392
29	0xbd292e57	-0.04130396
30	0xbd0a68a4	-0.0337912
31	0x3c665729	0.014058867
32	0x3b452c64	0.0030086273
33	0xbe03cbca	-0.12870708
34	0x3b814ff9	0.003946301
35	0xbcf4c9a9	-0.029881315
36	0x3e738488	0.23781025
37	0xbcf7db70	-0.030256003
38	0x3de226bb	0.110425435
39	0x3dec1cd1	0.11528934
40	0xbd86c399	-0.06580276
41	0x3cc88950	0.024479538
42	0x3ce2d254	0.027688183
43	0xbab88f0c	-0.0014080717
44	0xba5e9c20	-0.00084918924
45	0x3bde2875	0.006779725
46	0x3d5ca6e8	0.05387011
47	0xbc834241	-0.016022803
48	0xbd86f3ba	-0.06589456
49	0xbcad4b08	-0.021153942
50	0x3ddd2933	0.10798874
51	0xbc2e966d	-0.0106559815
52	0xbd80d55f	-0.06290697
53	0xbd9b758e	-0.07590781
54	0xbc364c97	-0.011126659
55	0xbd6180f4	-0.05505462
56	0x3e03c886	0.12869462
57	0x3c34d3fe	0.011036871
58	0xbda89729	-0.082319565
59	0x3c47c58d	0.012193096
60	0xbd7b8c41	-0.061413053
61	0x3de862b3	0.113469504
62	0x3c582e5c	0.013194647
63	0xbb0c13a1	-0.0021374004
64	0xbc6d5040	-0.014484465
65	0xbaba81ea	-0.0014229391
66	0x3c4da05c	0.01255044
67	0xbd025336	-0.031817637
68	0x3cb4eb14	0.02208475
69	0x3b3fa28b	0.002924117
70	0x3d97a35a	0.07404204
71	0x3e0f1c56	0.13975653
72	0xbe424348	-0.18970978
73	0xbcbc94c9	-0.023020165
74	0x3cc9968d	0.024607921
75	0xbd9cbdd3	-0.076533936
76	0xbbcab5da	-0.006186229
77	0x3e0d4e71	0.13799454
78	0x3dcdc61d	0.10047553
79	0xb53ef6ce	-7.1139664e-07
80	0x3d90ee65	0.0707672
81	0xbda66156	-0.08124034
82	0x3dbbf11d	0.09176848
83	0x3b806879	0.003918704
84	0xbd035a77	-0.032068696
85	0x3dfeae7d	0.12435625
86	0x3c592816	0.013254186
87	0xbddd1356	-0.10794704
88	0xbb826ef3	-0.0039805113
89	0xbd112e22	-0.035444386
90	0xbd6d55fa	-0.05794332
91	0x3d6826c1	0.056677584
92	0x3cf73520	0.0301767
93	0x3de18e72	0.110134974
94	0xbdefb91e	-0.1170523
95	0x3c4837ee	0.012220366
96	0xbd0b783a	-0.034050204
97	0x3d3d4421	0.04620755
98	0xbdb7d79f	-0.08976673
99	0xbe8dea91	-0.27718022
100	0x3dbbf2b3	0.091771506
101	0x3db0df43	0.08636334
102	0x3d5686dd	0.05237471
103	0x3d34851c	0.044072255
104	0x3d114a8a	0.035471477
105	0x3dac621f	0.084171526
106	0xbb96bac1	-0.0045998995
107	0x3e07321c	0.13202709
108	0x3c4d7aec	0.012541514
109	0xbb3db22f	-0.0028945317
110	0x3d891ed2	0.06695332
111	0x3d3a7ad7	0.045527305
112	0xbcb8b4e6	-0.022547197
113	0xbbef8a4d	-0.007310188
114	0x3cd1afe7	0.025596572
115	0xbd081c80	-0.033230305
116	0x3baa22f8	0.005192157
117	0x3dd03a9a	0.10167427
118	0x3be8ad4c	0.0071007367
119	0xbc13caa5	-0.009020482
120	0xbc91ad9b	-0.017782977
121	0x3ca79261	0.020455541
122	0xbd795d14	-0.06087978
123	0x3d465df5	0.04842945
124	0xbad59437	-0.0016294782
125	0xbde25c2b	-0.11052736
126	0x3d09a49d	0.033604253
127	0x3db47765	0.08811835
128	0xbb96a1a4	-0.004596906
129	0xbe491b3c	-0.19639295
130	0x3caad682	0.020854238
131	0x3d370550	0.0446828
132	0x3d2c5647	0.042074468
133	0xbd33f17c	-0.04393147
134	0xbbe9910c	-0.0071278866
135	0x3dbc754e	0.092020616
136	0xbd14ff11	-0.036376063
137	0xbc0fd95e	-0.008779852
138	0x3c2cad99	0.010539436
139	0xbdc4d37e	-0.096106514
140	0x3d7b2d26	0.061322354
141	0xbb748964	-0.0037313337
142	0xbc11ccd0	-0.008898929
143	0x3c7b267d	0.015329001
144	0xbc9f8c53	-0.019476091
145	0x3c6887bc	0.014192518
146	0x3d1c9291	0.038225714
147	0x39b3c69b	0.00034289513
148	0xbdb12b2a	-0.08650811
149	0xbdadafd1	-0.084808
150	0xbccfe4dd	-0.025377685
151	0x3d699f22	0.057036527
152	0xbcd61477	-0.026132805
153	0x3a5a5af0	0.0008329591
154	0xbd9675e7	-0.07346707
155	0xbd6d092e	-0.057870083
156	0xbd6563b7	-0.0560033
157	0xbc7db2e3	-0.015484544
158	0xbcbceed7	-0.023063106
159	0xbcec3523	-0.028833931
160	0xbb68124c	-0.0035411296
161	0xbda486d8	-0.08033532
162	0xbdf1a523	-0.117990755
163	0x3c15cbeb	0.009142856
164	0x3c65aec3	0.014018717
165	0x3dd01f3d	0.10162208
166	0xbba86e4b	-0.005140101
167	0xbcca28d7	-0.024677677
168	0xbb96ea1f	-0.004605546
169	0x3ba282c7	0.0049594375
170	0xbe127d20	-0.14305544
171	0xbda7e5cf	-0.081981294
172	0xbb68c387	-0.0035516934
173	0x3d9753c4	0.07389024
174	0x3d4c4dbc	0.04987882
175	0x3c37d529	0.011220255
176	0x3d678de2	0.056531794
177	0xbbc703fd	-0.0060734735
178	0xba88f97d	-0.001045033
179	0xbd04803a	-0.03234885
180	0x3bb75276	0.005594547
181	0xbd9aadc7	-0.07552677
182	0xbda52508	-0.08063704
183	0xba9486de	-0.0011331697
184	0xba26dc65	-0.0006365239
185	0xbb3775ba	-0.0027993754
186	0x3c853e36	0.016265016
187	0x3a307da2	0.0006732588
188	0xbcd6c2b3	-0.026215887
189	0xbadeb830	-0.0016992148
190	0xbcd7c062	-0.026336852
191	0xbd48a763	-0.048987757
192	0x3d416db8	0.047223777
193	0xbdd0d38d	-0.101966
194	0x3d943791	0.07237161
195	0xbd76aae1	-0.060221557
196	0x3c011cce	0.007880403
197	0x3b2cb4d5	0.0026352901
198	0xbe280159	-0.16406764
199	0x3b91d32b	0.004450222
200	0xbe00c289	-0.1257421
201	0xbd308e21	-0.043104295
202	0xbe06a937	-0.13150488
203	0xbd3950d4	-0.0452431
204	0xb8bb652d	-8.9357e-05
205	0xbba9e11e	-0.0051843068
206	0x3d6c4e52	0.05769188
207	0x3d7b2b3d	0.061320532
208	0xbcff078d	-0.03113153
209	0xbc981b79	-0.018567787
210	0x3a81b56a	0.0009895985
211	0x3c4ca65d	0.012490836
212	0xbc1bc3c4	-0.009507123
213	0xbda68b76	-0.08132069
214	0x3bcde54d	0.0062834383
215	0x392e982c	0.00016650622
216	0x3de5b85d	0.11216805
217	0xbcb1a01a	-0.021682788
218	0x3cc07acc	0.023496054
219	0x3d4f79a0	0.0506531
220	0xbd4d2506	-0.050084136
221	0xbd5d8adc	-0.054087505
222	0x3d3cbd5f	0.046079036
223	0x3cb964f1	0.02263114
224	0x3dc2e014	0.09515396
225	0x3bf7ecdd	0.007566078
226	0x3d36548b	0.04451422
227	0x3b1d6add	0.0024019994
228	0x3e158a0b	0.1460344
229	0x3d709bbc	0.05874227
230	0xbd2aeda9	-0.041730557
231	0x3b60b9ca	0.0034290426
232	0x3e0b3de6	0.13597831
233	0x3c854a68	0.016270831
234	0x3dbbd577	0.091715746
235	0xbc825288	-0.015908495
236	0x3c89e620	0.016833365
237	0xbdc80b84	-0.097678214
238	0xbc816065	-0.015793035
239	0xbd348412	-0.044071265
240	0x3d0744c2	0.033024557
241	0xbbe9694d	-0.0071231485
242	0x3d9614cd	0.07328186
243	0x3e484e47	0.1956111
244	0x3cf0ad3c	0.02937948
245	0x3e07f3ca	0.13276592
246	0x3bc9c6e7	0.006157744
247	0xbdad73bb	-0.084693395
248	0xbcb84616	-0.022494357
249	0xbceba74b	-0.028766295
250	0xbc0a7e34	-0.008452941
251	0xbdb32cc6	-0.08748774
252	0x3cf9b5c2	0.030482177
253	0xbd57a035	-0.05264302
254	0x3e0374ea	0.12837568
255	0xba712bfc	-0.00091999746

last_fc.bias f4 [2]
0	0x3b2b8a03	0.002617479
1	0xbd192219	-0.037386034
