rlkit/model/leftmodel/model_parameter.pkl (torch, 589387 bytes, 9 tensors)

action_log_std f4 [1, 2]
00000000: bef0 4bbe 3a25 86bf
-0.19916055 -1.0480111

fcs.0.weight f4 [256, 56]
00000000: 29a3 1d3e 34bd bb3d e556 563d 54f5 813d
00000010: ae75 a1bc 38a7 413d c64a 2a3d 03cd a93d
00000020: 9c4a cf3c 96e4 69bc 56eb a6bd 6305 c63d
00000030: a6b6 b83d 6f3e 1fbc 3617 0f3d e30c bbbd
00000040: 3e00 f13d 8ffc e3bd 3ebf 913d 2d58 83bd
00000050: 7058 02be dc55 d33b 686b 32be 9d22 92bd
00000060: 45fe ffbc 7a11 e9bd 2f89 733d cbe5 163d
00000070: a62c 37bd 2037 753d 8b27 553d 9c90 663e
00000080: 6ab9 923d fd77 603e ca09 1a3d b47f 313d
00000090: e819 8bbd d28d 203d c7c4 a73c 40c3 55bd
000000a0: 7a7d 3e3e 008c bebd 23d7 b8bd 8693 c4bd
000000b0: 3dc4 313b 96d2 b0bd 8374 0ebe 084c f5bd
000000c0: eaa4 ecbd a67c 1b3e 50a8 0abe 645f ff3c
000000d0: ec77 09be e5e7 22bd 0490 44bd 76dd 173c
000000e0: 2c92 3a3e 094c 80bd 91dd a7bc 4986 9b3c
000000f0: 7fba 44bd b2d9 b53c d3a6 9fbd 9c25 fa3c
00000100: d307 893d 62ca 07bb 86f4 d3bc 8c3a 053d
00000110: 8910 1abc b523 83bd bd24 debc 6ace c33d
00000120: d101 f03c 4f93 f2bd 0e5c bc3d 7475 a8bd
00000130: 63c6 ccbe a2cf 203d 5d15 17bd 9cf5 67bd
00000140: 7987 d2bd 3292 8cbe 07c6 91bd 51fe 663d
00000150: 9047 373d a759 9cbd 3db0 53bd d8f3 b13a
00000160: ea57 48bc 6545 d7bd 297d cf3d cf4d fe3d
00000170: 6b06 303a e95a 9d3b ba39 4bbe 2f65 483d
00000180: 20a2 cf3d 2628 cebc dba5 e03c 0f61 6d3d
00000190: 7276 e5bc 3266 c2bd 8ab3 3abd 3954 0c3e
000001a0: dfc8 2fbe e4d8 31bd 5275 56be 1b27 013b
000001b0: fee6 90be 57ef 0a3e c269 b13d 904c 373d
000001c0: 93bd 273e 1a54 88bd df8e 40bd 32b4 6d3d
000001d0: 806c 613c f78c 38bd 6819 393c 426a 34bc
000001e0: a456 12bd 9019 d5bb aacc 96bc 244b ce3c
000001f0: 8854 6cbc fc37 313d e77b 53bd 54b3 86bd
00000200: cd77 243b 9860 2ebe 60d3 9f3d d2f3 91bc
00000210: d5ab 1ebd 5b30 0a3e 06ad 38ba 8c2f df3c
00000220: fb85 b7bb 2097 f83d 564b cfbb 51c8 0e3d
00000230: dbad de3d 33fb babd 3048 97be 05a6 debd
00000240: b334 553d 2c58 3bbb 9968 8f3d 1e16 74bd
00000250: e8fe aabc c9c0 11be c058 f93d e9a7 45bd
00000260: bb27 87be 1e03 91bd 9a0d 1abe e46d b53d
00000270: e4b2 393d 244c a33e 38ba e9bc 0058 103d
00000280: da6e 843c c54f 60bc d85f ecbd 7732 b0bb
00000290: b072 47be ac08 7c3c 8023 7fbd ed04 8e3e
000002a0: 898e 9f3e 2e7f e7bc 135e b8bb 45dd 6f3c
000002b0: 4684 03bd 807b 823c 875a 29bd 89da 013d
000002c0: ba1d 00bd d3bb 23bd d637 89ba 1873 d43c
000002d0: 7ee0 a2bc 880d 0f3d 98ea 62bb 48e5 04bb
000002e0: 4e45 1d3d 3057 2b3e 1bb0 4bbd a0c0 13be
000002f0: c196 353e 1e13 a83d fbbb 863d cc07 63bc
00000300: c9d9 98bc 1a26 d9bc ea7d afbd 0522 efbe
00000310: 3150 e63e bd55 c2bd 6c2c 39bf 9c8b c53c
00000320: 3213 883d e913 4a3e b37c a6bc 8e42 04be
00000330: 58a0 cbbc acd2 a3bd 4ee3 b5bd 939c 6a3d
00000340: 4855 2f3e 90b3 8abc 1468 bbbd 16db 4cbd
00000350: 52a5 c73c 9de4 853d d05b 253d 163d cb3c
00000360: 47c6 533b 3616 bb39 c0f3 eabc 6ce6 89bc
00000370: dfd1 bf3d 1666 373d c673 0a3d 2a0f 24bd
00000380: f2c0 b23d 2878 5e3d 4e07 6e3c aad6 3fbd
00000390: 430b 803d dd66 c13b d695 863d 33c1 86bd
000003a0: e80f 553d f82d b5bc 4f24 6cbb ae8d 62bb
000003b0: 9339 643b 6013 c73b 96a6 063d 6859 5bbd
000003c0: 682c 53bd f2ed 96be c6db 283e eef4 dfbd
000003d0: b57e edbe dbf6 b7bd bf8a 5bbe 5150 c7bd
000003e0: ab67 8d3d 88e2 43be 758b 42bd 97a9 2ebc
000003f0: b2de 8fbc cb94 51bd d293 c03c e541 0b3d
0.15394272 0.09166947 0.052328963 0.06345621 -0.019709434 0.047278613 0.041575216 0.08291056
0.025304131 -0.014275691 -0.081503555 0.09668996 0.090192124 -0.009719475 0.034934245 -0.09133317
0.11767624 -0.11132156 0.07116555 -0.064133026 -0.12729049 0.006449444 -0.17423785 -0.07135508
-0.031249175 -0.113802865 0.059457 0.03684024 -0.044720314 0.059867024 0.052039664 0.22516102
0.07164271 0.21920772 0.03760699 0.043334678 -0.067920506 0.03919775 0.020479573 -0.052188158
0.18602553 -0.09304047 -0.09025409 -0.0959845 0.0027125024 -0.08633916 -0.13911633 -0.119773924
-0.11554892 0.15184268 -0.13540769 0.031173415 -0.13424653 -0.039771933 -0.047988907 0.009269109
0.18219823 -0.062645026 -0.020491393 0.01898493 -0.04802942 0.022198532 -0.07795491 0.030535512
0.066909455 -0.0020719995 -0.025873434 0.032526538 -0.009403356 -0.06403295 -0.027117128 0.09560855
0.029297741 -0.11844503 0.091972455 -0.082255274 -0.39995107 0.039260514 -0.036885608 -0.056630716
-0.102797456 -0.27455288 -0.07117849 0.05639488 0.04474598 -0.07634287 -0.051681746 0.00135767
-0.012227992 -0.10511283 0.10131294 0.124171846 0.00067148235 0.004802097 -0.1984624 0.04892462
0.10138345 -0.025165629 0.027422836 0.05795389 -0.02801058 -0.094921485 -0.045581378 0.13704003
-0.1716647 -0.043419734 -0.20943192 0.0019707147 -0.28301233 0.13567863 0.0866275 0.04475075
0.1638091 -0.06656666 -0.047011252 0.058033176 0.013758779 -0.04505631 0.011297561 -0.011011662
-0.03572716 -0.0065032914 -0.018408138 0.025182314 -0.014424451 0.04326628 -0.051631834 -0.06577173
0.002509582 -0.17029035 0.078039885 -0.017816458 -0.03873809 0.13495009 -0.00070448255 0.027244352
-0.0056006885 0.121382 -0.0063261194 0.034859005 0.10873004 -0.09129944 -0.29547262 -0.108715095
0.05205221 -0.002858649 0.07002372 -0.059591405 -0.020873502 -0.14233698 0.12175131 -0.048255835
-0.263975 -0.07080673 -0.15044251 0.088588506 0.04533662 0.31894028 -0.028531179 0.035240173
0.01616614 -0.013690894 -0.11541718 -0.0053771096 -0.19477344 0.015382927 -0.062289715 0.27738133
0.31163433 -0.028258886 -0.005626449 0.014640157 -0.032108568 0.01592803 -0.0413461 0.031702552
-0.03127835 -0.039974045 -0.0010468911 0.025933787 -0.019882437 0.034925014 -0.0034624692 -0.0020278264
0.038396172 0.16732478 -0.049728494 -0.1442895 0.1773329 0.08206771 0.06578823 -0.013856839
-0.018658536 -0.026507426 -0.08568938 -0.46705642 0.44983056 -0.094890095 -0.7233341 0.024114423
0.06644286 0.19734158 -0.020323133 -0.12916014 -0.024856731 -0.07999167 -0.088812456 0.057278227
0.17122376 -0.016931325 -0.09150711 -0.050013624 0.024370823 0.06537745 0.040370762 0.024809401
0.0032314227 0.00035683968 -0.028680682 -0.016833507 0.093662016 0.04477509 0.033801816 -0.040053524
0.08728208 0.05431381 0.014528109 -0.04683558 0.06252148 0.005902155 0.06571548 -0.065798186
0.052017123 -0.022116646 -0.0036032384 -0.003456931 0.0034824356 0.0060753077 0.032873712 -0.05355206
-0.05155602 -0.29478413 0.16490087 -0.109353885 -0.46385732 -0.08982631 -0.21439646 -0.09732116
0.06904539 -0.19129384 -0.047496278 -0.010660551 -0.017562244 -0.05116729 0.023507986 0.03399839

fcs.0.bias f4 [256]
00000000: b457 d33d 0680 14be 7d76 a2bd 6eea 47be
00000010: cefc 6fbe d731 a7bd 3ac6 0b3e de93 3cbe
00000020: 93f0 653c 1319 acbd 6527 72be 3075 d13c
00000030: f2ec 2f3d e78c 003d dce5 d0bd 4d88 c9bd
00000040: 85f3 0ebe 1232 10bd 26a5 efbc cee5 d5bd
00000050: 5978 a1bc 2c74 5abe e1fe 78bc 6434 e4bc
00000060: df20 8bbe 9291 883d fcea c8bd 8ef8 13be
00000070: d9de cabd 1f19 e63c 2026 383c 074e f83d
00000080: 2706 08be 0f3f ab3d 8ce7 0cbe 274a 373e
00000090: 55c5 84be 98d0 a4bd 5d00 ddbd f841 24be
000000a0: 393e 903c 2ff1 a8be 26a8 efbd b37b f4bc
000000b0: f80a f9bd 88cb 21bc 684e a73d 97b2 18be
000000c0: 5ad1 e1bd ae24 603d 23a1 2ebe a0a8 2bbd
000000d0: 9cb5 873d a32b 5fbe a700 f8bd 4cfc 0ebe
000000e0: 8942 edbd 8386 a3bd 4344 f6bd 7ec5 243e
000000f0: 58c9 fd3b c00a 17be c5b7 ce3d e857 eebd
00000100: 3800 06be 89d5 40be 1780 1fbe aecc 1dbe
00000110: b62a afbd e201 aabb a87f 6abe 86ea 043e
00000120: 4c00 cbbd b605 a1bd 016a af3c fc99 9abd
00000130: 44e8 b4bc e52d 1bbe e825 43be 9ea0 7bbd
00000140: 813d 93bd 06e1 6ebe ba09 f8bc 7966 2abe
00000150: 052c 39be 3adb cabd 3e5b cebc b677 b6be
00000160: 47ce a5bd 9137 0dbe 3576 4cbe bb84 7ebe
00000170: fde7 e1bd c8be 09be 7b1c ff3c 9a9f 3abe
00000180: d4d0 e9bd bc40 16be d70a fbbd 04b0 31be
00000190: 0d57 0cbe d6d5 3e3d 5a2a 2bbe 7166 3cbe
000001a0: 678c 413d 588c 65be bd93 383e 8810 9c3c
000001b0: 2dc2 9d3c 5a92 8cbc 27ea b6bd 7309 1e3d
000001c0: 1e20 84be 8591 75bd 6aba 9f3d cace 0fbe
000001d0: acac c93c a7ad 4cbd e494 c6ba 70d9 853d
000001e0: e9fd c5bd 0f30 753d 514d 61bc a7e5 c2bc
000001f0: ef39 3abd 68e9 e4bc be93 83be 6cf4 3fbe
00000200: f46c 533d 8b7f 8ebe c5ef eabd 01d2 24be
00000210: 8fba b3bd ebf3 423d f308 86bd 9e92 0bbd
00000220: df43 5abc 0844 0fbe be0f debd 775e 02be
00000230: 9a22 5dbe 2825 43bd e75c 02be ee8b 4abe
00000240: 5a88 abbd c2fa 64bc 7328 fe3c 5263 c6bd
00000250: 1e7b e33d 2c04 a5bd d688 00be da1f c8bd
00000260: 1061 80bd 983f b7bd 39e9 91be e658 3c3d
00000270: 06c3 e73c c01b 38be cddc 84bc b9b6 21be
00000280: 080c 22bd 876d 67bc 66b0 b83d e141 72be
00000290: 3649 b13d 23ed 6a3c 0672 08be 1921 f33c
000002a0: 170d 18be 03e4 c83d 39f8 82bc ec46 40be
000002b0: 8b52 d6bd 6d65 653c 9fc1 ebbd 9bfb 54be
000002c0: 2cda 173e 879c 003e fa3a 2ebd 358a c0bd
000002d0: 0fa0 e4bd 6145 68bd 6065 31be 16c6 c43d
000002e0: 94b7 d4bc 2d36 293d d370 363c 8d32 21bb
000002f0: d385 0bbe b51a 29be dd0d c83d 4ced 91bd
00000300: f3d1 16be 9de1 24be 8f90 9cbd b6f6 1abd
00000310: 13de 46be 3e19 06be 394b 66be 13e7 16be
00000320: dd4f f53a 8ada 243d be6a 57be 698a 67be
00000330: a23c 92be 64b5 99be 4fb4 02be 7dd7 71bc
00000340: 1f23 c7bb 4fb7 22be a950 80be 0c1a 263c
00000350: 0e16 25bd 3360 1d3d 0041 913d 94b4 82be
00000360: 3edf a8bd 1a88 703c 91fd 98be 8b31 81bc
00000370: 3e87 01be ab53 143e 00b1 04bd 0d8e 95be
00000380: 39db 88bd 9c63 333d 4b7b 2bbe e11a bcbd
00000390: 1e28 f2bd 84e4 0ebe 0145 76be ab99 62be
000003a0: a302 5abd 733d 843c 2698 80bd 8d79 95be
000003b0: e07a 7ebe cc43 693c 14e2 843b a2d5 133e
000003c0: f623 e5bc 87f8 443d 458e 76be a37c 65bd
000003d0: 7b6a 78be 4d55 16bd 614d 18be 1964 0c3d
000003e0: 9304 e4bd f816 48be 575a b4bc 7a0b 17bb
000003f0: 49c1 89be fbbf 12be 12cb 82be 402b 603d
0.103194624 -0.14501962 -0.07932756 -0.19523022 -0.23436281 -0.08163803 0.13649836 -0.18415782
0.014034408 -0.0840322 -0.2364784 0.025568575 0.042950578 0.031384375 -0.10200092 -0.098404504
-0.13960083 -0.035204 -0.029253554 -0.104442224 -0.019710707 -0.21333379 -0.015197487 -0.027857013
-0.27173516 0.0666839 -0.09810445 -0.14450285 -0.09905786 0.02808815 0.011239558 0.121242575
-0.13283597 0.08361637 -0.13760203 0.1789938 -0.25931802 -0.080475986 -0.10791085 -0.1604079
0.017607795 -0.32996508 -0.11701994 -0.02984414 -0.12160295 -0.009875186 0.08169252 -0.14911877
-0.11026259 0.05472248 -0.17053656 -0.04190886 0.06626436 -0.2179399 -0.121094994 -0.13963431
-0.11584956 -0.079846404 -0.12024739 0.16090962 0.0077449493 -0.14750195 0.10093645 -0.116378605
-0.13086021 -0.18831457 -0.15576206 -0.1541011 -0.08553068 -0.0051882127 -0.2290026 0.12980089
-0.09912166 -0.078624174 0.021412851 -0.075489014 -0.02208341 -0.15154226 -0.19057429 -0.061432473
-0.07189465 -0.23328027 -0.030278075 -0.16640653 -0.18083198 -0.099050954 -0.025189992 -0.35638207
-0.08095985 -0.13790728 -0.19966967 -0.2485532 -0.110305764 -0.13451684 0.03114151 -0.18224946
-0.11416784 -0.14673132 -0.12257927 -0.17352301 -0.13705082 0.04659065 -0.16715375 -0.18398453
0.04725304 -0.22416818 0.18025108 0.019050851 0.01925763 -0.01715963 -0.0893138 0.03858323
-0.25805753 -0.05995323 0.077992275 -0.14043728 0.02461847 -0.049970295 -0.0015150574 0.065356135
-0.0966757 0.059860285 -0.013751344 -0.023791147 -0.045465406 -0.027943328 -0.25698656 -0.18745583
0.051617578 -0.27831683 -0.11471514 -0.16095735 -0.087758176 0.0475959 -0.06544676 -0.034075372
-0.013321846 -0.13990796 -0.10842846 -0.12731348 -0.2159523 -0.047642857 -0.12730752 -0.19779941
-0.08375616 -0.013975801 0.031025147 -0.096869126 0.11107467 -0.08057436 -0.12552199 -0.097717
-0.06268513 -0.089476764 -0.28498247 0.045983218 0.028291237 -0.17979336 -0.016218567 -0.1579236
-0.039562255 -0.014125234 0.0901802 -0.23657943 0.08656542 0.014338764 -0.13324746 0.029678868
-0.14848743 0.09809115 -0.015987502 -0.18777055 -0.104649626 0.014001233 -0.1151154 -0.20799105
0.1482932 0.1255971 -0.042536713 -0.09401361 -0.11163341 -0.05670679 -0.17323828 0.096080944
-0.025966443 0.04131143 0.011135298 -0.002459678 -0.13625269 -0.16514094 0.09768269 -0.07125339
-0.14728527 -0.1610169 -0.0764476 -0.037832938 -0.19420652 -0.13095567 -0.22489633 -0.14736585
0.0018715818 0.040247478 -0.21036813 -0.22611393 -0.28561884 -0.30021203 -0.12764095 -0.014760849
-0.006077185 -0.15890239 -0.2506154 0.010138046 -0.040304236 0.03842182 0.07092476 -0.25528395
-0.08245705 0.014680887 -0.29880956 -0.015770694 -0.12649247 0.14485042 -0.032395363 -0.2920994
-0.066824384 0.043796167 -0.16746251 -0.09184814 -0.11824058 -0.1395436 -0.2404976 -0.22128932
-0.05322517 0.016142583 -0.0627902 -0.29194298 -0.2485156 0.014237355 0.004055271 0.14436963
-0.02797125 0.048088577 -0.24077709 -0.056027066 -0.24259369 -0.036702443 -0.14873268 0.034275148
-0.11133685 -0.19540012 -0.022015734 -0.0023047612 -0.26905277 -0.14331047 -0.25545555 0.054728746

fcs.1.weight f4 [256, 256]
00000000: 0b61 f6bd d3f0 4bbd 7b79 8abe 8931 0fbe
00000010: 0c3f dbbd 9555 3bbe 6532 8fbe 879d 07be
00000020: 4440 7d3b 7ffe 10be 1b86 2dbc c789 16bd
00000030: 44d1 e1bd 2532 78bd 22c3 bcbe 7bf5 7f3e
00000040: ed50 f43d 8c0e 703e 57b4 183a 4065 48bd
00000050: c9cc c7bd 293e a43d c438 a43c af69 f5bd
00000060: 72d6 cc3d 5202 8b3d 9668 cbbd 48d1 8e3d
00000070: 7475 a53b 9748 6ebe fd09 4dbe dab0 0d3e
00000080: 2158 b83d 3199 66bd 407f 46be 26f7 363d
00000090: 3693 0e3d e3bc 52be 3f9d 7e3d 3357 babd
000000a0: 7ef6 423d c9cc a93d 52e8 ca3d 5002 2dbe
000000b0: d98e 293b bca6 0cbe 4779 fcbc e902 d1bd
000000c0: bcb8 ad3d d28d dfbe 2c18 89bd 7d42 2e3d
000000d0: e28c 433d f62a 34bd 1c34 45bd af04 cf3d
000000e0: 9bda 8bbd ac03 6ebc 2d57 c1bb 64e4 a1be
000000f0: c8b1 59bd 6e27 1e3e 35d0 80bd b832 3b3e
00000100: bb5f 5fbe 54bd f53c ac1f bd3c 1b97 06be
00000110: 008b 923d 1498 11bd a9d7 8a3e 462f 9dbc
00000120: afe1 113e 0014 bf3d 6098 debd 47e3 9abd
00000130: 3923 8f3d 77df 593e 1162 c83d b3f5 80bd
00000140: b95e 5cbc 87f7 14bd 4347 59bd 46b8 fa3d
00000150: 5aec 9c3d 1bd5 27be acca d5bd fb1f 143e
00000160: 725e 3b3e cf16 a5bd 0a32 85be b26d 91bd
00000170: 4e73 c63d 60f7 1fbe a7a5 b4bd 3ed8 023e
00000180: f020 9f3d 89b8 263d 4db6 a43d 0f3c 54be
00000190: 7931 3dbc 03b9 25be 9e72 d33c 9795 55be
000001a0: 3716 45be afda 0b3e 656a 72be bf51 8fbe
000001b0: 70a8 4e3e 5c98 bd3d 16ec eabc 4f17 95bd
000001c0: a744 81be a71d 0c3e 0660 09be 5df4 b6bc
000001d0: ee21 abbd 300a 0dbf 5350 89be d580 0f3d
000001e0: c55c 83be a8a8 16bd de78 46bd 280a e9bd
000001f0: d144 d43d 2990 4e3d 8914 da3d 9934 153d
00000200: 7c7a 95be d76d cf3d df34 443d ee98 633e
00000210: 966a d03d 73e8 cabd 3782 22bd b22f bcbe
00000220: 813a bebc 9d53 a5bc 344c c2bd c937 013e
00000230: b2c2 fd3c eec9 c3be 193e b4bd 9e86 b93c
00000240: 8458 233e 51ec 373e 26e5 583d 34eb 233e
00000250: e3e2 42be ade1 683c df52 d03d 7dfd 9ebd
00000260: fed0 f03d 8966 31be 0efd de3d d646 393d
00000270: dbaa d1bc 1021 1fbe 5b5f e6bd 0179 4fbc
00000280: ada7 cfbb 60fd e63d 406f 13be ed43 d63d
00000290: 127e 3b3b ba01 b03d 7499 d7bd 81eb 89bd
000002a0: 293d fc3d 5c73 21be 69c0 0f3d c39e 42be
000002b0: 411d bdbd 5775 713d 5eb2 f8bd b8bb 6c3e
000002c0: 1a61 a2bd 0058 193c 3494 adbd 8682 323d
000002d0: 01c1 a33d 0a1f 45be fe40 18bd a858 1e3c
000002e0: 9596 26be f377 f63b de4b 07bd ff3a 3dbd
000002f0: d80d 8abe 9f0c ddbd d93f 81be 4b1a 05be
00000300: e680 8fbc f092 683e a758 3f3d bac1 0ebe
00000310: a5bd 00be 2e23 c4bd 3135 9b3d 0377 04be
00000320: 936b 76be 56ce 883d 2cb0 51be f54e f03b
00000330: 13ce b1bc f382 6f3b 2f74 783c 21e0 2ebe
00000340: d9fb 8b3d dd72 3dbd 8f1f 303e bc2c 84bd
00000350: bc01 763c f70b cebd 5963 d0bd b79d 6cbc
00000360: 2d46 fdbd efae afbd abe9 84bd 385a e03d
00000370: ecbc c63c a161 833d f4bb 38bc 3bf7 603c
00000380: e907 073e 1563 d9bd 5885 38bc 6c76 853d
00000390: e784 023e 8221 a9bb 7871 503c 5a12 43be
000003a0: 9c10 97bd 129a abbe ef9a dfbd 190f 17bd
000003b0: 6171 df3c a12e 8e3d 4744 4f3c 2998 1b3d
000003c0: 2cc7 6fbe bdf1 bf3d 37fc 0a3e bf8b fcbd
000003d0: 15c1 aebd 0b40 003d fd3e 22bd a7f8 29bd
000003e0: 94e6 bdbd 90aa bbbc 9748 b33d 0878 52bd
000003f0: f71e d33d 4711 75bd c4ef e3bd 7007 66be
-0.12030228 -0.049790215 -0.27045807 -0.1398374 -0.107053846 -0.18294366 -0.27968135 -0.13243686
0.0038643042 -0.14159583 -0.010591055 -0.03675249 -0.110262424 -0.060594697 -0.36867625 0.24995987
0.11929498 0.23443049 0.00058252126 -0.048924685 -0.097558565 0.080196686 0.0200466 -0.11983048
0.1000184 0.06787552 -0.099320576 0.06973511 0.005049402 -0.23269878 -0.20023341 0.13836995
0.09001184 -0.05629844 -0.1938448 0.044669293 0.03480836 -0.20579867 0.06216168 -0.09098663
0.047598355 0.08291013 0.09907593 -0.16895413 0.0025872497 -0.13735479 -0.030819548 -0.10205633
0.08482501 -0.43662888 -0.066940635 0.042543877 0.04774178 -0.043986283 -0.0481454 0.10108315
-0.06828805 -0.014527243 -0.0059002847 -0.3161956 -0.05314806 0.15444729 -0.06289712 0.18281066
-0.21813862 0.029997505 0.023086391 -0.1314358 0.071554184 -0.035545424 0.2711766 -0.01918758
0.14246248 0.093299866 -0.10868907 -0.07562881 0.0698914 0.21276651 0.0978433 -0.062968634
-0.013450318 -0.036368873 -0.053046476 0.122421786 0.07662268 -0.16389887 -0.10439047 0.14465325
0.18297747 -0.08060991 -0.2601474 -0.07101001 0.096899614 -0.1562171 -0.08820658 0.12777802
0.07769954 0.04070333 0.080425836 -0.20726036 -0.01154744 -0.16183858 0.02581149 -0.20857845
-0.19246756 0.1365764 -0.23673399 -0.27992055 0.20181441 0.09257576 -0.028677028 -0.072798364
-0.2524769 0.13683186 -0.13415536 -0.022333318 -0.08356081 -0.5509367 -0.26819095 0.035034973
-0.25656715 -0.036781937 -0.04845511 -0.1137889 0.10364688 0.05043045 0.10648448 0.036427114
-0.2919501 0.10128372 0.047901984 0.22226307 0.1017658 -0.099076174 -0.039674964 -0.3675514
-0.023221256 -0.020181471 -0.09487191 0.12618937 0.030976627 -0.38239998 -0.08800907 0.022647198
0.15951735 0.17961241 0.052952908 0.16007692 -0.19031863 0.014213962 0.101720564 -0.07763193
0.11758612 -0.1732427 0.1088811 0.04523357 -0.025594166 -0.15539956 -0.11248656 -0.012663127
-0.006337127 0.11278796 -0.14397907 0.104621746 0.002860908 0.08594079 -0.10527316 -0.06734372
0.12316353 -0.15766662 0.035095606 -0.19005875 -0.09234095 0.058949795 -0.12143396 0.23118484
-0.07928677 0.00935936 -0.08475533 0.043581508 0.07995797 -0.19250122 -0.037171356 0.009664692
-0.1626838 0.0075216233 -0.033031337 -0.04619884 -0.26963687 -0.10793423 -0.25244024 -0.12998311
-0.017517518 0.22712302 0.046715405 -0.13941088 -0.12572344 -0.095770225 0.07578505 -0.12936024
-0.24064474 0.066799805 -0.2047736 0.007333631 -0.02170471 0.0036546558 0.015164419 -0.17077686
0.068351455 -0.04625212 0.17199539 -0.06453845 0.015015062 -0.10060876 -0.10175199 -0.014441899
-0.123669006 -0.08578288 -0.06489881 0.10954708 0.024260007 0.064151056 -0.01127528 0.013730819
0.13186611 -0.106146015 -0.01126226 0.06516728 0.1274601 -0.005161465 0.012722366 -0.1904997
-0.07376215 -0.33515984 -0.10918223 -0.036879633 0.027275743 0.069424875 0.012650556 0.037986908
-0.23415822 0.0937228 0.13572775 -0.12331342 -0.08532921 0.031311076 -0.03961085 -0.0414969
-0.09272495 -0.022908479 0.0875408 -0.051384002 0.103086405 -0.05983093 -0.11129716 -0.22463775

fcs.1.bias f4 [256]
00000000: 2813 313d 6321 283e 11a4 463e 3781 373e
00000010: d34e bd3d 45ff 993d 93c1 1b3e 1e99 203e
00000020: 4bcd 3d3e 80a8 0b3e b1ae 1f3d 1647 d83d
00000030: 6d67 8ebb 81a2 acbb c946 553e ac68 8c3d
00000040: a94e 9a3d d935 883d 26b2 873e a5f6 993d
00000050: d2c5 823d aeb0 503e d9b7 3f3d c981 d33d
00000060: bae5 133d 382a 533e 3d1d 2c3e 0bea 693d
00000070: f4ed 7f3d 3dcb 133e 003c 943d c4d6 0d3e
00000080: b5ac c23d 8152 673e 937c 5cbc 3035 b33d
00000090: 8a66 fbbd d77d cb3d ae38 2b3e 3876 3e3e
000000a0: acc5 ca3d b2ff 463e e126 953d 940e 403d
000000b0: 795c c63d 3039 c93d 08ae e13d 488d 0abd
000000c0: 0c45 473d fd37 a03d 9090 773d 4ed8 173e
000000d0: f495 e13d 55ec b13d 6113 15be c16a 3c3e
000000e0: 7498 863d 4948 183e 1c90 b13d 5f39 8d3e
000000f0: d522 003e 5b97 b23d b0a6 b83d e268 f23d
00000100: 090d 8e3d 3136 133e 6976 0d3e 4da4 7a3d
00000110: d338 813d 5aaf af3d 8930 923d 6284 293e
00000120: 18c0 1dbe 2f4e 373e 4aea d83d 5dad 693c
00000130: fc6a a13d c65b 8e3d b0cd 9e3d dfbc 9b3d
00000140: c79b 12be 46a3 b3bc 2551 d13d 9b2c a03d
00000150: 05db a0bd e4b5 163e f5a2 183d 06ac 6d3e
00000160: 5ab6 3e3e ce8c 8d3d ac0a 8d3d 02f8 253e
00000170: d74c 583e feb6 0c3e ccd8 d83d f335 ae3d
00000180: e5d1 5c3c 7eb2 da3d d52d 2e3e f83c 103e
00000190: 39af 123e c4c6 973d 2dd2 913d 1a45 5a3e
000001a0: 49f5 0f3e ccea 0fbe c2af 5b3d 0db6 953d
000001b0: d593 1c3d ae1b 383e aa8e 1d3e e2a4 743e
000001c0: 2554 8b3e 95cf 593d f7af df3d cc3a 183e
000001d0: e095 6bbc d72f 023e 2e27 903e 9091 c73d
000001e0: 52e7 143e d2be 5abc cacd e73d 139e c93d
000001f0: 09df 383e c6d8 a83d d411 4e3e bda7 09bc
00000200: 73b0 5e3e 8fba 9c3d 3793 92bd 4a74 6a3e
00000210: 09be c73d 752a 6a3e c729 e83d 5f78 a53d
00000220: 2afb dc3d 5638 733d 24b6 de3d b365 963d
00000230: 6a42 ac3d 1787 993d b982 913d cd3c 12bb
00000240: 053a e23d e88c 32bc ba04 a43d 4e58 c13d
00000250: cd59 5b3d e3e3 463e 9b9a 0abe 6a6b e73d
00000260: 48ec 8c3d 7db4 3c3e ed53 1b3e 5e3f acbc
00000270: 7013 cd3d 49c6 223e b45c 833c 6592 db3d
00000280: 059f babd d2cd d83d 7581 7c3d 7248 6f3e
00000290: 2a55 633d 062e 20bc 6917 9f3d 49e9 953d
000002a0: 6efb 843d e179 733e 322f 7a3e a127 a93d
000002b0: 7fb6 9f3d 0c6d b63d cb97 673d 3a2f 863d
000002c0: 2833 0f3d 571e cdbc ac57 5c3d 8a82 0c3d
000002d0: de9e 193e a1a3 d7bd 1252 3a3c 03b6 e23d
000002e0: b993 993d 7d6b 413e 9fa8 663e 2c00 d13d
000002f0: 9bca 0a3c 3b61 103e d6af 7f3d 0d93 a4bd
00000300: 4106 893d 6c4a d43b 3aac bcbd a7c1 bb3d
00000310: ef2b 213e 02fc 4f3d ceb0 313e 6e12 763d
00000320: 33b6 b73d 7641 683d d02a a93d 86f8 a33d
00000330: 6e50 893d 3752 953d 27f4 5b3d 3d14 8d3d
00000340: 9a83 8b3d ec6b 973d fda4 e13d aa4c 193e
00000350: c785 5c3e 596e 83be cd7a 25bd aa5d 803d
00000360: 252d 943d 65a9 6f3e fdb9 dd3d 1ad7 0b3e
00000370: a878 3e3e deb6 393e 1786 a4bd 6448 283d
00000380: 9c89 e93d 0aa5 023e 57a7 a73d bce6 f53d
00000390: 0775 0d3e 3e02 383e 560f 8fbd 38f2 0f3e
000003a0: 0921 c03d cf54 e63d b5ac 993d 06be 073e
000003b0: 5eb6 393e 77b9 3eb8 e6b7 a13d 3e44 9f3d
000003c0: 3b72 073e 45c2 f53d 9a59 163e ad9d 8d3d
000003d0: 8518 e8bc 6aaa 0c3c 5094 293e e442 183d
000003e0: 2c35 ea3d 7a71 903d 0d4c 533e e04d 073e
000003f0: 92ba 7c3d bf9c 703e 30c5 fabc 4287 933d
0.04323116 0.16418986 0.19398524 0.17920385 0.0924355 0.07519392 0.15210561 0.1568341
0.18535344 0.13638496 0.038984958 0.105604336 -0.0043458254 -0.0052683954 0.20827784 0.06855902
0.075345345 0.066508956 0.26503104 0.07517747 0.063853875 0.20379898 0.04680619 0.10327489
0.036107756 0.20621574 0.16808029 0.057107966 0.06248279 0.14432998 0.072380066 0.13851458
0.095055975 0.22590066 -0.013457435 0.08750379 -0.12275417 0.099361114 0.1672084 0.18599784
0.09900984 0.19433478 0.07282806 0.046888903 0.096856065 0.09825361 0.11019522 -0.033826143
0.048649833 0.07823179 0.0604406 0.14828607 0.110149294 0.08687655 -0.14558174 0.18400098
0.06572047 0.14871325 0.08670065 0.27582833 0.12513287 0.08720275 0.09016168 0.11836411
0.0693608 0.14376141 0.13814701 0.061191846 0.063096665 0.085783675 0.071381636 0.16554406
-0.15405309 0.17900918 0.10591562 0.014262524 0.07881734 0.06951098 0.077540755 0.07604384
-0.14317237 -0.02192844 0.10220555 0.07821008 -0.07854275 0.14717823 0.037264783 0.23210153
0.18624249 0.06911622 0.06886801 0.16207889 0.21123062 0.13741681 0.10588226 0.08506384
0.013477777 0.10678576 0.17009671 0.14085758 0.14324655 0.074109584 0.07120166 0.21315423
0.14058413 -0.14054412 0.053634413 0.07310114 0.03822692 0.17979309 0.15386453 0.23891023
0.27212635 0.05317648 0.109222345 0.14866179 -0.014378995 0.12713562 0.28154892 0.09744561
0.14541367 -0.013351159 0.11318548 0.098446034 0.18053831 0.08244471 0.20123988 -0.008401808
0.21746998 0.07652771 -0.07156985 0.22895923 0.09753043 0.22867759 0.113360934 0.080795996
0.10790093 0.059379898 0.10874584 0.07343616 0.08411105 0.074964695 0.071050115 -0.0022314072
0.110462226 -0.0108978525 0.08008714 0.09440671 0.053552438 0.1942287 -0.1353554 0.112997845
0.068810046 0.18428226 0.15168734 -0.02102631 0.10013473 0.15895952 0.016035415 0.10721282
-0.09112362 0.10586132 0.061646897 0.2336748 0.05550114 -0.009776598 0.07768137 0.07319886
0.06493269 0.23776962 0.24432066 0.08259512 0.0779848 0.08907518 0.056541245 0.065519765
0.034960896 -0.025038881 0.053794548 0.03430418 0.1500201 -0.105292566 0.011372106 0.11069872
0.07498879 0.1888866 0.22525261 0.10205111 0.0084711565 0.1409959 0.06242355 -0.0803586
0.06690646 0.0064785983 -0.09212537 0.09167796 0.15739416 0.050777443 0.17352602 0.06007617
0.089702986 0.056703053 0.08260119 0.080063865 0.06704794 0.07291072 0.05369964 0.06888626
0.068122104 0.07393631 0.11017797 0.14970651 0.21535407 -0.25670126 -0.040400315 0.06267865
0.07235173 0.23404463 0.1082649 0.13656273 0.18600714 0.18136165 -0.08033388 0.041084662
0.114032 0.1275827 0.081862144 0.120069 0.13814174 0.17969605 -0.06985347 0.14057243
0.09381301 0.11246645 0.075036444 0.13256082 0.18135974 -4.5472258e-05 0.07896404 0.07776688
0.13227169 0.119999446 0.14682618 0.0691484 -0.028332004 0.008585552 0.16560483 0.037173167
0.11435923 0.07052894 0.2063448 0.132133 0.061701365 0.23497294 -0.030611604 0.07203533

fcs.2.weight f4 [256, 256]
00000000: 0a8e 2abc 122c 313d 4b40 b43c 1686 a8bd
00000010: c3eb e43c 4e16 1cbd 42af d43c f83f f5bc
00000020: 85a3 6ebe 937f f23c 524a 1f3d 5e3f 933d
00000030: 8b53 f63d 9e40 94bb 3d68 7dbe 7374 33bd
00000040: 636b 3abd 3552 1ebd 67aa a6bc 35aa 72bd
00000050: 0d3d 39bd 7f2f e2bd 0f97 2d3d c990 e7bc
00000060: 8e58 0bbd 95d2 c5bb 416d 07be 8df5 b0bd
00000070: ced6 5cbe 44d4 5d3d 7902 263e 569a a2bb
00000080: f3cc 09be 81fc 3fbd 8ab0 e6bd 151c b43d
00000090: 07c2 27bd cd00 11be cf9e 65bd be7c 98bd
000000a0: 104e e53d 9e31 f9bd bfd0 c8bc f660 8c3b
000000b0: 3a7d 16be e47c df3d 4d63 d9bd 9812 183d
000000c0: e4f3 81bd 5f95 93bd 2f2d b33d 19f1 0dbe
000000d0: 5699 ee3b 8afb 183d 5449 2fbd ae0e 45be
000000e0: bc4a 4fbd 9e2c e1bb 45cb a13b e8f1 3abd
000000f0: d748 47be 5f72 323d 2afd 27be 3534 283e
00000100: b6dd 33bd 87f5 50bd 1d45 0a3c ec3d 25be
00000110: 21af 483d 06b8 043d 1402 0ebd 6e3f abbc
00000120: 066a 3f3d 448f 4dbe 3452 edbd 9d92 75be
00000130: 2901 7d3c b0ed 25bd 6e39 47bd 0f16 88bc
00000140: 533a 10bd b85b febd 7735 083e 857e c13d
00000150: f47b f6bd 4731 b2bd 7826 adbd 3067 4b3e
00000160: 1d98 c5bc 8aed 68bd 701a 673b 3409 093d
00000170: 5898 b4bd 5485 01bc df6d 033d 03bb 093e
00000180: c756 6cbd 7a0f 373c c12f 2ebd 1723 40bc
00000190: 8adf 0e3c bbba d23d 77e3 013c 752f a33d
000001a0: 0019 6cbe 3258 10be 21b6 b83d 29d6 06bd
000001b0: ca43 64bd e173 0bbd 1d7d 723e fa84 82bd
000001c0: dcbb 913c f4a0 8cbd 4a8c fabd 518f 46bd
000001d0: bd88 23be 1495 37be 10ae c93c aa4d 523e
000001e0: 900b f1bc 138a 34be aabd cbbd 941a 8438
000001f0: 3dc1 01bc 3d4b 06bd 76ea 22bc 73d4 aa3d
00000200: 0fed 433d 1013 f6bd 160e 13be 56a5 d1bb
00000210: ec25 e03d 4d52 ba3c ff64 973d 297d 2a3d
00000220: 0084 ce3c 4c5a 14bc 57f8 1c3d 4215 5fbc
00000230: db98 3bbd 9b06 dcbc 109a 2e3a 03aa 723d
00000240: 217d 00bd 2dfa 0b3d 92fb 96bb 7fa2 8dbb
00000250: 58c3 9dbd 712a cdbd c199 22be e353 13bc
00000260: a9cd 3a3a 5cca 733d c46b 103c a49a f1bb
00000270: 7238 12be 9f03 a43d ea80 e33c bc0a 373c
00000280: b7a2 55be ca02 883b 2f3d e2bb 15ca 6bbd
00000290: 3a19 34bd 567d 903d 21f1 813e d873 633d
000002a0: 5e0c 853d ef38 063e 5c97 8a3d 9fee a13c
000002b0: 414c e4bd 83b9 c73d 4c1d 1a3c 1a9f 57bd
000002c0: ba6a 08be 9d37 98bd 50cc 05be c612 8bbd
000002d0: 48a2 34be 924f cdbd a05a 06be b6f6 b3bc
000002e0: f0da d6bd b56a 29be ca4d 3abd 07ad 89bd
000002f0: 1c7f 7b3d 8490 423d 63b8 cf3c ea23 2ebe
00000300: 867f a5bb 01a9 16be eacc 8bbd 2d05 a8bb
00000310: 470f 39be a1af 62bd 3f01 7b3b 5100 60bd
00000320: 1ebf 6c3d 66a1 4f3d 4a94 15be 298f 3d3a
00000330: 68cc 243d 346b 6cbc dd4d 84be 168b debd
00000340: 5655 30bd 3239 3f3b 82d7 d4bd a8bf 81be
00000350: dcbd f9bc 81cc 8bbe d64a 46be c241 83bc
00000360: 9dd7 073e 7c94 d7bd e2d3 82bd 40b6 7ebe
00000370: 427d 87bd 361e 2cbe 3df6 39be 7fa0 2b3d
00000380: 829c 6f3d c5f9 143e e1f8 f23d 06f6 0dbc
00000390: f90b 9fbc 29ef 0abe a843 4bbd e9ac 51be
000003a0: 3a0f 703d cf09 a63c a39a 88bd d322 48bd
000003b0: f5bc ddbc 9e03 c8bd a1da fe3c 8e34 5abc
000003c0: b80e 753d 4dcf b83d 455e 2abe 1d78 0b3d
000003d0: 85a4 92bc ea09 203e c6a3 d7bd be42 15bd
000003e0: ddbb cb3d 14ed b13b c7fb a13c 2cac dc3d
000003f0: bde8 843d 214b 19be 10e5 b8bc 6565 38be
-0.010409841 0.04325492 0.022003314 -0.082287 0.027944451 -0.03810721 0.025962476 -0.02993773
-0.23304565 0.029601848 0.038889237 0.07189821 0.12027653 -0.0045243045 -0.24746795 -0.043812227
-0.04551257 -0.038652617 -0.020344926 -0.059244353 -0.04522424 -0.110442154 0.04238039 -0.028267281
-0.03402 -0.006037066 -0.13225271 -0.08640585 -0.21566316 0.05415751 0.1621188 -0.004962246
-0.13457088 -0.046871666 -0.11264141 0.08794419 -0.040956523 -0.14160462 -0.056059655 -0.07445668
0.1119653 -0.12167667 -0.0245136 0.0042840196 -0.14696208 0.10912493 -0.10614643 0.037127107
-0.063453466 -0.07206225 0.087488525 -0.13861503 0.0072814627 0.03734926 -0.04279454 -0.19243881
-0.05060838 -0.006871774 0.0049375617 -0.045640856 -0.1946138 0.043566104 -0.16405168 0.16426165
-0.043912612 -0.051015403 0.008439329 -0.16136903 0.04899514 0.03240206 -0.03466995 -0.02090427
0.04673197 -0.20074183 -0.115879446 -0.2398171 0.015442171 -0.04050988 -0.048638754 -0.01661208
-0.035211872 -0.12419838 0.13301645 0.0944796 -0.12035361 -0.08700805 -0.08454603 0.19863582
-0.024120385 -0.05686716 0.003526356 0.033456042 -0.0881812 -0.007905323 0.032087203 0.13450246
-0.057699945 0.0111731235 -0.04252601 -0.011727116 0.008720288 0.10289522 0.007927767 0.07968036
-0.23056412 -0.14096144 0.09019113 -0.032919083 -0.05572871 -0.034046058 0.2368054 -0.063730195
0.017789774 -0.06866637 -0.12233789 -0.04847652 -0.1597013 -0.17927963 0.024619132 0.20537439
-0.029424459 -0.17630796 -0.09948285 6.299201e-05 -0.007919607 -0.032786597 -0.009943595 0.08341303
0.0478335 -0.12015355 -0.14360842 -0.0063978834 0.10944733 0.022744322 0.0739231 0.04162327
0.025209427 -0.009054732 0.038322773 -0.013615908 -0.04580007 -0.026858618 0.00066605303 0.059244167
-0.031369332 0.034174133 -0.0046076262 -0.0043223496 -0.077032745 -0.10017861 -0.15878965 -0.008992168
0.00071259827 0.059519157 0.008814756 -0.007373171 -0.14279345 0.08008503 0.027771432 0.011171993
-0.20862852 0.004150723 -0.0069042663 -0.057565767 -0.04396937 0.07055156 0.2537928 0.0555304
0.064964995 0.13107656 0.06767151 0.019767104 -0.11147357 0.097521804 0.009406399 -0.052641965
-0.13321963 -0.074324824 -0.1306622 -0.0679069 -0.1764003 -0.100249425 -0.13120508 -0.021968227
-0.10490978 -0.16544612 -0.04548434 -0.067224555 0.061400518 0.047501102 0.025356477 -0.17005888
-0.0050506024 -0.14712907 -0.06826194 -0.00512757 -0.18072234 -0.055343274 0.0038300303 -0.0546878
0.05779945 0.05069103 -0.14607349 0.00072311104 0.040234 -0.014429856 -0.25840655 -0.10866372
-0.043050133 0.0029178378 -0.10392667 -0.25341535 -0.03048604 -0.27304462 -0.19364485 -0.016022567
0.13265844 -0.10526368 -0.0638807 -0.2487421 -0.06615688 -0.168084 -0.18160339 0.041901108
0.058498867 0.14548405 0.11863876 -0.008664614 -0.019414889 -0.13567795 -0.04962507 -0.20476116
0.05860827 0.020268349 -0.066701196 -0.048861336 -0.02706764 -0.09766315 0.03111011 -0.013318194
0.05982849 0.090239145 -0.16637523 0.034050096 -0.017900715 0.15628782 -0.10529284 -0.036440603
0.099479415 0.0054298732 0.019773377 0.10775027 0.06489704 -0.14970066 -0.022570163 -0.18007429

fcs.2.bias f4 [256]
00000000: e396 573d eb6c 373e 8ad4 933e 0779 d23d
00000010: 511d 963e 54ce 963d ae6b a63d b237 413e
00000020: a3d6 b63d 41aa 833d 57f1 893e 1f3a 903d
00000030: 23f9 d53d 0cf9 733e a44b 533c 7b6b 133e
00000040: 59d7 1f3e 31de 563e 3e8c f33d 99fa df3c
00000050: 5299 2dbc f113 f23d ef4a 423d 0dd3 df3d
00000060: 8709 7c3d 0432 ad3d 00e1 a73c 8fde f23c
00000070: 1515 c43d 2a61 853e 5574 c93d 0410 e93d
00000080: bfd4 223c ce23 e73d d565 2c3d 790a ed3d
00000090: e4d5 ee3d c091 dd3d ea1e 30bd 8498 963e
000000a0: 61a5 b03d 22ee 863d c9ce 603e 41fc a73d
000000b0: d4f7 033e 39da 823d b6df 3f3e 2d35 cd3c
000000c0: ce4c 003e 9be2 103e 415e 8a3e b9c4 043e
000000d0: bf03 e43d e821 963d 3aae 6f3e e8fa 0e3c
000000e0: 5d3f 863d dc1a 913d 916f 613d 0df2 203d
000000f0: 8ed4 1d3e bf43 6a3e 353c a13d e997 153e
00000100: 7ee6 8b3e 802c 1a3e af00 a83e 1036 953e
00000110: dd86 e03d d844 c73e 6f94 3c3d b6e6 cabc
00000120: 2a8b 2b3e f479 f23d fa03 af3d 1ecc 023e
00000130: 4a5f 1c3e 453d 7f3c df64 da3d 43d0 523e
00000140: c101 b03d 3d91 bd3c f6e9 05bb 8dc9 2c3d
00000150: bc1c 903d 8ece 7b3e 683e 6d3d 2e30 063e
00000160: c44e 4b3c 1ed0 ed3d 202f e63d ce97 f3bb
00000170: 4f86 173e 28a0 6b3e 6dd9 193e 2136 1b3e
00000180: a2fe 903d aa1a 9a3d 3a32 c73d 81b7 163e
00000190: 2d67 673d db42 293e c429 163d 19ea 7d3d
000001a0: 8ddc b4bd 63f1 b13e 770c 8d3e 7703 ce3d
000001b0: c423 903e 8e80 fc3d c1f6 ec3d a8d8 3e3e
000001c0: 46ee fc3d d851 983d dbb3 843e 4aba 663e
000001d0: 83e2 313e 18d6 2a3e 5686 a23d e9a6 023e
000001e0: d790 bd3d c8a4 4f3e 3ac8 983d 2b1d 4b3e
000001f0: e5a2 ba3d f0c3 343e d20d cb3d d37b 793c
00000200: 7011 e13d f6e4 1d3e e4c6 5f3d 4cad d03d
00000210: 2f32 133d 31e9 d73d ddaa 8e3d 93ed 563d
00000220: 66a6 fe3d 5e10 7c3d 18ec 933d 605c e83c
00000230: f777 213e 4221 4c3e 3388 cb3d c4c5 53bd
00000240: 32d6 7d3e 8f81 d53e 3708 9a3e e82b d03d
00000250: 244c 803d b48b d13d baad 303e 4f3d 093e
00000260: 3ef6 ac3d 14b3 c23c 0d0b e93c 7150 8f3d
00000270: c012 703e 07f2 ed3d 54f1 793e fd32 213d
00000280: 8151 513e 516b 693e 0dd2 413e f166 a23e
00000290: 0218 773e 22b2 1b3e e3da 013e b730 b43e
000002a0: b0e6 873d 158c 05bd 464e 453d 90dc 4c3e
000002b0: c8ec 183e c825 173e d376 643e 8239 f23d
000002c0: 8325 bb3d 27bf 6e3c ae9a 583e 3dd1 463d
000002d0: d6f3 74be e24e 763e 9a73 473e fb7f a43e
000002e0: 8211 133d 4a6b a33e b8d3 2f3e abe0 0d3e
000002f0: eccf fc3d ac98 093e 1e68 a33d 7292 1a3e
00000300: f3e4 103e 76e8 b43d 9891 693d baf3 883d
00000310: 52e4 923d da41 ae3d abed c33d 6d52 3a3e
00000320: c77f 333d 8518 6b3e 4206 543e 7455 dd3d
00000330: f535 0f3e 9192 c13d 7b26 6336 aec3 84bc
00000340: 022d fa3d cb95 993d 7809 503e 6097 983e
00000350: bf3e c23d 7f55 cf3d 0ca7 463e 4e5c 143e
00000360: ecbe dc3c faf9 b43d b706 663d 2a95 8b3d
00000370: 03f1 243e f1ff bc3c 50b4 ec3d c7b9 7f3c
00000380: dfd9 2a3e 5cad 813e 53b2 ce3d 5cb8 b83d
00000390: fe64 9c3d 86d3 033e 7069 8d3d 87b7 cc3d
000003a0: 9711 b13c a703 6c3e 7ee4 8c3d 567d 043d
000003b0: 02c1 913d 2b40 d03d fcd4 073e eccf ee3c
000003c0: 9aaa cb3d ba05 a33e 2633 483d f878 203e
000003d0: 16b4 943d 6aa9 083d 9a5c e63d 058f d73d
000003e0: 1999 af3d 542b 8c3d f8ee 873e d2ad 9d3d
000003f0: 158f 353d bf60 623e f5a3 163e 8052 af3d
0.05263413 0.17912643 0.28873092 0.102769904 0.29319242 0.07363573 0.08126007 0.18868902
0.089276575 0.06428958 0.2694194 0.07042336 0.1044791 0.23825473 0.012896452 0.1439647
0.15609492 0.20983197 0.118919834 0.027341174 -0.010595636 0.1182021 0.047434743 0.109289266
0.061532523 0.08456805 0.02049303 0.02964714 0.095743336 0.26050693 0.09836642 0.11380008
0.009938418 0.11286126 0.042089302 0.11574263 0.1166189 0.10818815 -0.042998232 0.29413235
0.086252935 0.06588389 0.21953882 0.082024105 0.12887508 0.06389279 0.18737683 0.02504977
0.12529299 0.14148943 0.27025035 0.12965669 0.11133527 0.07330686 0.23406306 0.008726813
0.06555054 0.07085201 0.05503804 0.039293338 0.15413114 0.22877406 0.07872812 0.1460873
0.2732429 0.15056038 0.32813022 0.2914281 0.10963223 0.3891971 0.046039995 -0.024768215
0.16752306 0.11839667 0.0854568 0.12773177 0.15270725 0.015578573 0.10663771 0.20587258
0.085940845 0.023140544 -0.002043364 0.0421844 0.07036731 0.24590513 0.057920843 0.13104317
0.012408916 0.11611961 0.11239457 -0.007433868 0.14797328 0.23010314 0.15024348 0.15157367
0.07079817 0.07524617 0.09726377 0.14718439 0.05649488 0.1652941 0.036660925 0.06199083
-0.08831129 0.34754476 0.27548572 0.100592546 0.28152287 0.12329207 0.11570502 0.18637335
0.123501346 0.074374855 0.2591847 0.22532001 0.17371564 0.16683233 0.07935779 0.12758984
0.09256142 0.20277703 0.07460065 0.19835345 0.09113101 0.17652869 0.099147454 0.015227276
0.10989654 0.15419373 0.054633036 0.10189304 0.03593653 0.105425246 0.06966183 0.052472662
0.12434082 0.061539046 0.07222766 0.02836436 0.15768419 0.19934562 0.09938087 -0.051702276
0.2478874 0.41700408 0.30084392 0.101646245 0.06264523 0.102317244 0.17253771 0.13402294
0.084454045 0.023767032 0.028447652 0.06997765 0.23444653 0.11618429 0.24408466 0.039355267
0.20441248 0.22794844 0.18927784 0.31719163 0.24130252 0.15204671 0.12681155 0.35193416
0.06635797 -0.032604296 0.04817035 0.20006013 0.14934075 0.14760506 0.22310953 0.11827375
0.09138014 0.014571941 0.21152756 0.04853939 -0.23921141 0.24053529 0.19477692 0.3212889
0.03590537 0.31917793 0.17170608 0.13855235 0.123443455 0.13437146 0.07978843 0.15094927
0.14149837 0.08833401 0.057023615 0.06687112 0.07172455 0.08508654 0.09566816 0.18195505
0.04382303 0.22958572 0.20705512 0.108073145 0.13985427 0.094517834 3.3848034e-06 -0.016206589
0.12215616 0.07499274 0.20316112 0.2980299 0.09484624 0.10123729 0.19399661 0.14488336
0.026946507 0.08836742 0.056158748 0.0681556 0.16107564 0.023071261 0.115578294 0.015608258
0.16684674 0.25327575 0.100926064 0.09019539 0.0763645 0.12873659 0.06904876 0.099959426
0.021614833 0.23048268 0.06879519 0.032346092 0.071168914 0.10168489 0.13264841 0.02915188
0.09944649 0.31840307 0.048876904 0.15671146 0.07260911 0.03336469 0.11248131 0.10525326
0.08574123 0.06844202 0.26549506 0.07699169 0.044325907 0.22107218 0.14710982 0.085606575

last_fc.weight f4 [2, 256]
00000000: 1ace 2fbe a6fe e23b b333 da3d 47e7 53bd
00000010: 977b 323e e913 823c c16e ac39 bc73 ddbd
00000020: 1c53 86bc 296a 173d fa8f 04be 19f5 aabd
00000030: 8b30 9ebc c274 bb3d 4ead 3fbe 11cd ef3d
00000040: 1023 fa3d bc9f 50bc 83e5 93bd 98ef e73d
00000050: d378 d53c d29c 7e3c a2b9 efbd 36ce 8b3d
00000060: 1448 edbc b20c 603d 3cef f6bd 6b73 67ba
00000070: 0851 febd c546 81be e9b7 53bd a40f 833e
00000080: d629 43ba 4eff 3b3c cc29 60bc 34e3 2d3e
00000090: 493d 823a 131b 6cbd 45e5 88bc e67e 8fbd
000000a0: a8ac ca3c 8490 04be 7ec6 b3bd 3030 fe3c
000000b0: 73f4 833d 92e5 f7bd 5dc0 7bbd 4c06 043d
000000c0: c972 27ba 23a8 84bc 8b4f c9bd aea3 043d
000000d0: 23ff 8a3d cf8e e23b ece4 13be c835 963d
000000e0: 7c0f 303c f621 36bd 404b cebd eeef 63bc
000000f0: ab9f c23b 859f 903c 67e7 643b e853 14bd
00000100: e16c 0c3e c9df d63c 9ef0 133e 3cad 463d
00000110: 40a7 163d e530 1d3e b508 2cbe 7612 a8bb
00000120: 91e9 103c 3f25 54be a097 223d 38c2 96bd
00000130: dedd 8b3d 8e1d 503c afa5 38bc 8f06 65bc
00000140: 2684 b33d 0ca2 dd3c 379e 2fbd b7e2 103b
00000150: e1b7 bdbb 0838 333e 69cc 03bd bb6f 9b3d
00000160: 37e3 00ba 8fc5 b7bc 7b8a fe3c 93e7 c13d
00000170: e2ea 483d c173 0cbc 4302 343c 6011 4e3c
00000180: 0432 02bd dc9f 38bd 538a 16be f5f6 c4bb
00000190: 503e 223e f81a c63d 3434 2a3d 324d 0a3c
000001a0: d970 653d 0263 9b3d 9038 02be e004 e4bd
000001b0: 405a 053b b4d6 b0bd efa1 4dbd b238 45bc
000001c0: a0d6 0d3d e952 963d 86a1 d7bd 32b1 bd3d
000001d0: bca3 aabd 8800 f83d 271f 73bb 87c7 5b3e
000001e0: 1df9 863d 556f 883d 962e 713d 3fe9 683d
000001f0: 848e 9a3d 5817 673a e015 9a3d b69c 953b
00000200: b7df c63d 06b7 973d b0ac dfbd 1b60 92bd
00000210: 0900 2b3e aee8 b03d 6dba cabd 4b58 c0bc
00000220: f6e0 9abb 467c 5c3e d55b b2bd 49cc c7bc
00000230: dee7 3f3e 6cdb 89bc 482e 81bb 525b 2bbd
00000240: 8659 96be abf7 25be 813b 8b3d adc3 cebc
00000250: 5e72 bc3d 1959 0cbe 969f cc3d 9c8b 8abd
00000260: 8e18 b63b befb 6fbc b258 753c 23c4 37bb
00000270: 30bc 4ebd 94e2 aa3d cc14 9dbb eca6 703a
00000280: 77a2 f5bb b30a 923d a650 29bd 93e4 0dbe
00000290: 575f 223e abef 3dbd 79da 54bd 93ff b83d
000002a0: cb6f 52bb 5ff4 103e 5f2a 763c 9724 2fbe
000002b0: 4178 02be 3ad7 b6bd b219 e0bc 97ec e43d
000002c0: 175d bf3b 9880 5ebd 38c7 f1bd 4576 0dbd
000002d0: 8857 5f3e 52ee b6bd 32db 91bb a4cb cbbd
000002e0: 41ca d9bc 479b a6bd d9a6 ddbb 50a8 5ebd
000002f0: 7918 e0bc 61b5 84bd 35fa a53b 09d9 12bc
00000300: b60c 2c3c 1713 a53d 7dea 9f3c 54f1 dd3d
00000310: 10ed c93c 5121 873c a40d e4bc 00cc aebc
00000320: 1f9d 08bd d529 8c3d ab79 013c 94b3 9fbd
00000330: 291a b2bc 46fb a83d 15ba e0ba fe71 e83d
00000340: a255 e83a bed2 e43c cba4 f1bb 4062 70bd
00000350: 0159 813d 574e e33c df51 113e fcdc d4bd
00000360: 7c19 adbd 93db d43c ad2f 27be 7325 b83d
00000370: 17dc 3d3e beae 0a3d 3e7d 663b 7591 94bd
00000380: 29ed 0cba d9e3 6b3e 1fdb e73d fb49 c9ba
00000390: c5ad 1abd 8032 30bc 08f1 07be fd1f 373d
000003a0: 73cb 8bbd dd69 113e fb69 8bbd 766d cfbd
000003b0: 75cb c73d 598b 8ebd 027d 873d c528 2cb9
000003c0: aa9d bcbd a4c7 083e 95e6 2d3d 3f8f 17bd
000003d0: 5d25 153e 9107 3ebd bd60 00bd 786c c2bd
000003e0: d8a3 273e 4196 cabc 98dc 393e e228 43bd
000003f0: 95b0 1c3e 9804 903d 1867 35bd f4c4 973d
-0.17168465 0.006927329 0.10654392 -0.051734235 0.17429958 0.015878635 0.00032888915 -0.1081309
-0.016397052 0.036966477 -0.12945548 -0.0834753 -0.019310256 0.09153129 -0.18718454 0.11709035
0.12213719 -0.012733396 -0.0722151 0.11324996 0.02605859 0.015540319 -0.117053285 0.06826441
-0.028965034 0.054699607 -0.12057349 -0.00088291493 -0.12417799 -0.25249305 -0.051689062 0.2559787
-0.00074448937 0.011474444 -0.01368184 0.16981202 0.0009936477 -0.057643007 -0.016710887 -0.07006626
0.024740532 -0.12945753 -0.08778094 0.031028837 0.06443109 -0.12104334 -0.06146275 0.032232568
-0.0006387649 -0.016193455 -0.09829625 0.03238266 0.06786945 0.006913997 -0.14442796 0.07334477
0.010745879 -0.04446598 -0.100729465 -0.013912184 0.005939444 0.01765419 0.0034927966 -0.03621283
0.13713409 0.026229756 0.14447257 0.048505053 0.036780596 0.15350683 -0.16800196 -0.005129154
0.008844749 -0.20717333 0.039695382 -0.07361263 0.06829427 0.012702359 -0.011269971 -0.0139786145
0.0876544 0.027054809 -0.042875495 0.0022107789 -0.0057897423 0.17501843 -0.032177363 0.0758967
-0.000491667 -0.02243307 0.031071892 0.094679974 0.049052127 -0.00857252 0.010986867 0.012577385
-0.03178598 -0.04507433 -0.14701204 -0.006010885 0.15844083 0.09673113 0.04155369 0.008441256
0.056015823 0.075872436 -0.1271689 -0.11133742 0.0020347983 -0.08634701 -0.05020326 -0.012037443
0.03462851 0.073400326 -0.10528855 0.09262313 -0.08332011 0.12109476 -0.0037097426 0.21462832
0.06590483 0.0666186 0.05888232 0.056863066 0.07546714 0.0008815429 0.075237036 0.0045658005
0.09710639 0.07407956 -0.109216094 -0.07147237 0.16699232 0.0863813 -0.09898839 -0.023479601
-0.0047265245 0.21531782 -0.08708922 -0.024389403 0.18740794 -0.016828261 -0.0039422847 -0.041835137
-0.29365176 -0.16207759 0.06798459 -0.02523979 0.09201501 -0.13705863 0.09991376 -0.067649096
0.0055571264 -0.014647422 0.01497476 -0.002804049 -0.05047244 0.083439976 -0.004793739 0.0009180147
-0.007496174 0.07130947 -0.041336678 -0.13856725 0.15856682 -0.046371143 -0.051966164 0.09033122
-0.003211009 0.1415572 0.0150247505 -0.17103802 -0.12741186 -0.0892777 -0.027356002 0.111779384
0.0058399546 -0.054321855 -0.11805576 -0.03453662 0.21810734 -0.08932175 -0.004451179 -0.09950951
-0.0265857 -0.081350856 -0.0067642746 -0.054359734 -0.02735542 -0.06479908 0.0050652274 -0.008962878
0.010501077 0.08060282 0.019520992 0.10837045 0.024649173 0.016495379 -0.027838536 -0.02133751
-0.033352967 0.06843916 0.007902543 -0.07797924 -0.02174099 0.082510516 -0.00171453 0.11349867
0.0017725716 0.027932521 -0.007374381 -0.05868745 0.06315804 0.027747316 0.14191388 -0.10393712
-0.084521264 0.025983607 -0.1632678 0.08991518 0.18540989 0.033858053 0.0035169865 -0.07254306
-0.0005375916 0.23036136 0.11321091 -0.0015357131 -0.037763376 -0.010754228 -0.1327554 0.04470824
-0.06825914 0.1420054 -0.068073235 -0.101283 0.09755603 -0.06960172 0.0661564 -0.00016418386
-0.092097595 0.13357407 0.04245623 -0.037001844 0.14565034 -0.046393935 -0.031342257 -0.09493345
0.16371095 -0.02472985 0.18150556 -0.04764641 0.15301736 0.07032126 -0.04428777 0.07410613

last_fc.bias f4 [2]
00000000: 462d a1ba 00cc b93c
-0.0012296818 0.022680283
