rlkit/model/non-cutin_model/model_parameter.pkl (torch, 589387 bytes, 9 tensors)

action_log_std f4 [1, 2]
-0.2556258 -1.3119082
00000000: 63e1 82be 9cec a7bf

fcs.0.weight f4 [256, 56]
0.03935017 0.104642235 0.012244822 0.019676127 -0.0372898 -0.0013455008 0.0052575353 0.00082859653
0.0747053 0.029643664 -0.07968721 0.06037248 0.008109965 -0.05259187 -0.012641418 0.024739847
0.05595252 -0.038509704 0.15476796 -0.027120912 -0.08772757 0.05724419 -0.06288203 0.048048165
-0.004547369 -0.041389987 0.002756442 0.040125452 -0.011719356 0.008061333 -0.023575226 0.03530054
0.08830849 0.032009427 -0.005731859 -0.03877443 -0.022888782 -0.022617081 -0.056372285 -0.05712721
0.05614106 -0.073265426 0.036727473 0.004655753 0.010110011 -0.07821443 -0.05958277 -0.045731418
-0.060395688 0.008760169 0.018070994 -0.039389193 0.005448748 -0.084692195 -0.0896936 -0.07220093
-0.020693447 -0.039160945 -0.013372216 0.049927264 -0.02732667 -0.13794768 -0.06312966 -0.0018732726
-0.021469984 -0.112774946 0.062178418 0.047352444 -0.041812018 -0.024660764 9.285708e-05 -0.0062810755
-0.11185202 0.091023356 -0.026836904 -0.021372031 0.13851158 0.08481687 -0.17493127 0.075204976
-0.1356363 -0.0941162 -0.068972826 0.08847024 0.0709512 -0.025743738 0.055035274 -0.065012775
0.04474016 0.04977499 0.012631511 0.043684296 -0.09354729 0.042633984 0.027554728 -0.013962132
0.02804361 0.03781017 0.05968145 -0.06442651 0.033150285 0.034271717 -0.018691344 -0.121167645
0.009049369 0.004475452 0.016215067 0.03533334 -0.026764711 0.013593478 0.037143603 0.045295898
0.13172323 -0.06869285 0.13494688 0.12426438 -0.007114515 -0.019183911 0.007735695 0.06151868
0.0093295565 -0.0049400297 -0.038635187 0.021620162 0.058105927 0.07446706 0.01959933 -0.012768667
0.02347427 0.01999362 0.13559756 -0.09720973 -0.032333072 0.060052622 -0.034338184 0.052909218
-0.03492104 0.041686147 -0.05858257 0.015882503 0.091781065 -0.03917535 0.0006705784 -0.03351814
-0.002704919 -0.024749348 0.04263888 -0.037461024 0.03144387 -0.002359689 0.10548469 -0.04756337
0.024548855 0.029590625 -0.030282428 0.07722572 0.05742387 -0.069601975 -0.054202136 -0.06275966
0.065436974 0.018602246 -0.08687698 0.062788606 -0.0054611885 0.10634643 -0.00566694 0.014677372
0.09289683 -0.07514556 0.0218749 -0.18656182 -0.00508657 -0.06470156 -0.07150583 0.058378283
0.068255335 -0.03025668 -0.005941196 -0.004226347 0.006793339 -0.061388366 -0.045735586 0.050468586
0.029442096 0.12257004 -0.064272545 -0.04520029 0.11909263 -0.043084413 -0.0018018516 0.023221845
0.0033570025 -0.036058173 -0.078649946 -0.05188825 0.03614269 -0.028104015 0.05551387 0.030639868
0.07931145 -0.012509691 -0.022956466 -0.11021398 -0.0246832 0.11894007 -0.06758078 0.03295418
0.043221716 0.0023039973 -0.03363722 -6.219869e-07 -0.015587796 0.040672164 -0.028522063 0.032624096
0.049979486 -0.012051635 0.037223045 0.00010801347 0.033514097 0.033832386 0.04913883 0.02593749
-0.008007133 -0.019956712 0.06730653 -0.03129805 -0.024091626 -0.03142668 0.020955162 -0.028890291
0.022819566 0.014565512 0.015573288 -0.04821791 0.040390585 0.012280191 0.058912013 -0.019349243
-0.015120415 -0.069258936 0.019367717 -0.014974647 -0.18430193 0.02359324 -0.006484954 -0.045845572
0.06854872 -0.043357372 0.014406287 -0.07522126 0.0050940057 -0.020477144 -0.01104628 -0.013962199
00000000: a52d 213d ab4e d63d 829e 483c d42f a13c
00000010: 30bd 18bd 845b b0ba 6747 ac3b 2c36 593a
00000020: 18ff 983d 45d7 f23c 0c33 a3bd 2249 773d
00000030: a9df 043c 936a 57bd f31d 4fbc 38ab ca3c
00000040: 782e 653d 5abc 1dbd 7e7b 1e3e ad2c debc
00000050: 83aa b3bd e278 6a3d 4bc8 80bd 27ce 443d
00000060: 1902 95bb 8c88 29bd 6ca5 343b 965a 243d
00000070: 8b02 40bc ae13 043c d520 c1bc 4d97 103d
00000080: 15db b43d 511c 033d 51d2 bbbb f0d1 1ebd
00000090: 4181 bbbc 7547 b9bc a0e6 66bd 39fe 69bd
000000a0: 2bf4 653d 2f0c 96bd 8c6f 163d 498f 983b
000000b0: 76a4 253c e32e a0bd 100d 74bd de50 3bbd
000000c0: 7861 77bd d086 0f3c 9f09 943c 9056 21bd
000000d0: 698b b23b 1a73 adbd 47b1 b7bd 15de 93bd
000000e0: 4e85 a9bc 3a67 20bd 2417 5bbc 8880 4c3d
000000f0: 2edc dfbc 2842 0dbe 204a 81bd 9988 f5ba
00000100: d2e1 afbc 8df6 e6bd ccae 7e3d a3f4 413d
00000110: 1443 2bbd 5f05 cabc 44bc c238 7bd1 cdbb
00000120: ac12 e5bd 746a ba3d 11d9 dbbc 6614 afbc
00000130: fbd5 0d3e 78b4 ad3d 2f21 33be 1105 9a3d
00000140: 3ee4 0abe ffbf c0bd a041 8dbd e32f b53d
00000150: dd4e 913d 88e4 d2bc ab6c 613d 6b25 85bd
00000160: 7541 373d dce0 4b3d 66f4 4e3c 4eee 323d
00000170: b995 bfbd f9a0 2e3d 74ba e13c 6dc1 64bc
00000180: b6bb e53c d6de 1a3d 8974 743d 0cf2 83bd
00000190: 98c8 073d 8060 0c3d 971e 99bc be26 f8bd
000001a0: ce43 143c d0a6 923b 76d5 843c b1b9 103d
000001b0: ab41 dbbc 2eb7 5e3c e423 183d 3188 393d
000001c0: 74e2 063e d6ae 8cbd 842f 0a3e 537e fe3d
000001d0: e120 e9bb 9427 9dbc b77b fd3b 03fb 7b3d
000001e0: ffda 183c f9df a1bb ee3f 1ebd c41c b13c
000001f0: 7b00 6e3d 3082 983d c68e a03c ac33 51bc
00000200: 1d4d c03c a9c9 a33c 16da 0a3e e515 c7bd
00000210: af6f 04bd bdf9 753d 32a6 0cbd 56b7 583d
00000220: 5d09 0fbd 18bf 2a3d 47f4 6fbd 061c 823c
00000230: b6f7 bb3d 5576 20bd c1c9 2f3a 514a 09bd
00000240: 0345 31bb 25bf cabc 1ba6 2e3d bb70 19bd
00000250: 4acb 003d 03a5 1abb 5b08 d83d cfd1 42bd
00000260: ae1a c93c 0a68 f23c db12 f8bc 8528 9e3d
00000270: 4b35 6b3d 7b8b 8ebd 0f03 5ebd 2388 80bd
00000280: d203 863d bd63 983c 8fec b1bd 5097 803d
00000290: c5f3 b2bb 28cc d93d bdb1 b9bb 5c79 703c
000002a0: b140 be3d eae5 99bd fe32 b33c 100a 3fbe
000002b0: 3ead a6bb 4082 84bd a671 92bd 111e 6f3d
000002c0: 74c9 8b3d dbdc f7bc 5dae c2bb 2b7d 8abb
000002d0: a89a de3b 5e72 7bbd 3d55 3bbd 26b8 4e3d
000002e0: 8d30 f13c 0006 fb3d 53a1 83bd f023 39bd
000002f0: d6e6 f33d 4879 30bd 1b2c ecba bd3b be3c
00000300: 2801 5c3b bcb1 13bd 3913 a1bd c688 54bd
00000310: 5b0a 143d 643a e6bc 8362 633d 7600 fb3c
00000320: 0b6e a23d 72f5 4cbc 330f bcbc deb7 e1bd
00000330: 6c34 cabc da96 f33d cb67 8abd f6fa 063d
00000340: 4109 313d a9fe 163b 2ec7 09bd 9df6 26b5
00000350: f563 7fbc db97 263d 1aa7 e9bc d8a0 053d
00000360: 4ab7 4c3d 3974 45bc 3177 183d 4a85 e238
00000370: 1446 093d d493 0a3d cc45 493d dc7a d43c
00000380: 5a30 03bc 427c a3bc 02d8 893d 6232 00bd
00000390: cd5b c5bc 43b9 00bd 29aa ab3c 55ab ecbc
000003a0: 19f0 ba3c 2fa4 6e3c 1b27 7f3c 2580 45bd
000003b0: 9970 253d db32 493c b94d 713d 4e82 9ebc
000003c0: 9ebb 77bc a1d7 8dbd 0ca9 9e3c 3958 75bc
000003d0: a5b9 3cbe 9c46 c13c bd7f d4bb 91c8 3bbd
000003e0: 4563 8c3d 8097 31bd 5908 6c3c 9b0d 9abd
000003f0: 9eeb a63b afbf a7bc 75fb 34bc b5c1 64bc

fcs.0.bias f4 [256]
0.07968498 -0.06416765 0.10343253 0.040478207 0.015075255 0.009915401 0.13347197 -0.025297102
0.036709018 0.038003 0.11073323 0.044283863 0.16386738 0.05026611 0.11379842 0.0070558907
0.036231305 0.11328231 -0.018266145 0.059050422 0.080299 0.101507485 -0.0005896275 0.035439003
0.14241283 0.057829082 -0.037005436 0.08752407 0.07639932 0.0475238 0.033679586 0.13883016
-0.023339601 0.18143079 0.13027295 0.049147725 0.08896628 -0.053367198 0.043828472 0.111161985
0.050043646 0.11580798 0.09611393 0.102882504 0.093859725 0.0078105996 0.1417441 0.11153958
0.06828185 0.091572575 0.059512794 0.038108807 0.0817683 0.053589758 0.076559395 0.06015657
0.0052533154 0.1789565 0.06083133 -0.09469349 -0.027473172 0.05631126 0.01857285 -0.04294796
0.07296603 0.18111035 0.14701675 0.102088496 0.0010534269 0.072028264 0.123400204 0.05762618
0.113779634 0.02291708 0.08611227 0.022037186 0.232603 0.07215982 0.062059898 0.1341354
0.080876336 0.022754703 0.008890018 0.033232708 0.05906464 0.09135477 0.044628765 0.007517212
0.13899688 0.04052629 0.05536815 0.14886492 0.046382256 0.10315902 0.16358224 0.0630222
0.100829855 0.07358354 0.08889643 0.012434992 0.054801255 0.07965418 -0.06362004 -0.039110407
0.10244214 0.095397 0.19699416 0.062083628 0.022217378 -0.003998268 0.14811634 0.041055508
0.061630823 0.041505422 0.04628138 0.03859936 0.041302007 0.106660105 -0.099977545 0.13631585
0.024326485 -0.03232679 0.037045244 0.11486282 0.011460776 -0.014098221 0.022141157 -0.047443412
0.14902811 0.15694883 0.11340014 0.08290553 0.13184275 0.1145722 0.004668139 0.10280881
-0.03358254 0.16578306 -0.040657613 0.09709328 0.011640657 0.113054834 0.016093448 -0.028004518
0.1603606 0.07823827 0.12030384 0.11341235 0.018370554 0.025498364 0.10412043 0.06567551
0.11167584 0.05993706 0.07010841 0.023705358 -0.024822338 0.032475837 0.066342995 0.023984596
0.13343817 0.03828145 0.10193908 0.10154995 0.05442504 0.055279575 0.0027701992 0.12012797
0.041562486 0.09422613 0.07914936 0.118764035 0.062080953 0.14566907 0.10268349 0.008709176
-0.0074867145 0.099866815 0.14153521 0.010840555 0.114823885 0.016313408 -0.0021419341 0.04224716
-0.041106675 0.06926043 0.06951909 0.19225697 0.05414757 0.10665884 0.1262725 0.052971862
0.09495536 -0.063354045 0.011716304 0.052540768 0.10700056 0.13083754 0.07715402 -0.009343489
0.052467696 -0.009207536 0.017729357 0.02418576 0.1274132 0.104382545 0.045949988 0.10695679
0.1554009 -0.055061225 -0.0023798414 0.10016032 0.055894528 0.05627066 0.018599937 0.003830858
0.11111763 -0.008099819 0.075555354 0.018779581 0.070372015 -0.037090663 0.06208342 0.018687561
-0.03046731 0.021148453 -0.014277012 0.11564933 0.01616205 0.05871498 0.10617452 0.08629871
0.034987997 0.15017642 0.0978939 0.11589341 0.021895679 0.13938515 0.0063759685 0.07057991
0.058449797 0.058247067 0.14321874 0.08220505 -0.1199693 -0.01171775 0.17647445 -0.02193502
0.058016002 0.05439786 0.1403024 0.15937561 -0.042753734 0.010563188 0.023596153 0.14204466
00000000: e131 a33d 546a 83bd 6fd4 d33d 7acc 253d
00000010: 34fe 763c 3574 223c e0ac 083e de3b cfbc
00000020: 325c 163d 09a9 1b3d 1bc8 e23d ff62 353d
00000030: dacc 273e d6e3 4d3d 250f e93d 1a35 e73b
00000040: 4767 143d 8e00 e83d e2a2 95bc dbde 713d
00000050: cd73 a43d 28e3 cf3d 3b91 1aba 7d28 113d
00000060: abd4 113e 30de 6c3d 0393 17bd d23f b33d
00000070: 3f77 9c3d 51a8 423d 9bf3 093d 7e29 0e3e
00000080: b132 bfbc fec8 393e 4666 053e 204f 493d
00000090: f433 b63d 9097 5abd 7c85 333d e5a8 e33d
000000a0: 91fa 4c3d bc2c ed3d 61d7 c43d 10b4 d23d
000000b0: 8739 c03d 0ff0 ff3b 5e25 113e dd6e e43d
000000c0: 5bd7 8b3d 678a bb3d b0c3 733d fb17 1c3d
000000d0: 2376 a73d ef80 5b3d 2ccb 9c3d bc66 763d
000000e0: 0124 ac3b 5f40 373e 462a 793d a9ee c1bd
000000f0: 6b0f e1bc a3a6 663d 1726 983c 33ea 2fbd
00000100: 376f 953d fe74 393e 8f8b 163e c613 d13d
00000110: 2413 8a3a 8e83 933d 3fb9 fc3d 6e09 6c3d
00000120: 4c05 e93d 9abc bb3c a15b b03d 5487 b43c
00000130: 7b2f 6e3e 87c8 933d 8532 7e3d ca5a 093e
00000140: 7ea2 a53d 1268 ba3c 70a7 113c 051f 083d
00000150: c4ed 713d 3618 bb3d a7cc 363d f252 f63b
00000160: 3355 0e3e e5fe 253d b7c9 623d 0c70 183e
00000170: 52fb 3d3d 0945 d33d 1a82 273e c811 813d
00000180: e27f ce3d f8b2 963d 550f b63d 23bc 4b3c
00000190: 4877 603d bb21 a33d 394b 82bd 3c32 20bd
000001a0: 2fcd d13d 815f c33d d6b8 493e 674b 7e3d
000001b0: 3801 b63c e703 83bb cfab 173e d229 283d
000001c0: 9a70 7c3d 9701 2a3d 8b91 3d3d 5d1a 1e3d
000001d0: 4b2c 293d 9d70 da3d 07c1 ccbd 6296 0b3e
000001e0: 5648 c73c 1969 04bd c1bc 173d 333d eb3d
000001f0: fbc5 3b3c 3afc 66bc 5f61 b53c 0654 42bd
00000200: d39a 183e 32b7 203e 553e e83d 60ca a93d
00000210: c901 073e d4a4 ea3d 30f7 983b 6d8d d23d
00000220: d88d 09bd 09c3 293e 9988 26bd d7d8 c63d
00000230: 74b8 3e3c 4b89 e73d 68d6 833c bb69 e5bc
00000240: 9235 243e 633b a03d dc61 f63d bc44 e83d
00000250: d87d 963c f2e1 d03c 183d d53d e280 863d
00000260: 4eb6 e43d 9080 753d 0095 8f3d bd31 c23c
00000270: 3758 cbbc 6205 053d d6de 873d 587b c43c
00000280: 04a4 083e 02cd 1c3d 70c5 d03d 6cf9 cf3d
00000290: caec 5e3d d66c 623d 3b8c 353b a705 f63d
000002a0: 6d3d 2a3d a1f9 c03d 0f19 a23d 8f3a f33d
000002b0: 9948 7e3d 462a 153e b94b d23d efb0 0e3c
000002c0: 1d53 f5bb f986 cc3d 9bee 103e 959c 313c
000002d0: c928 eb3d b2a3 853c b15f 0cbb 5c0b 2d3d
000002e0: 795f 28bd 6ad8 8d3d 0660 8e3d 03df 443e
000002f0: d8c9 5d3d f36f da3d 944d 013e 06f9 583d
00000300: f577 c23d c4bf 81bd bef5 3f3c fd34 573d
00000310: 1c23 db3d 47fa 053e ed02 9e3d 6f15 19bc
00000320: 5ee8 563d 34db 16bc 283d 913c 3721 c63c
00000330: 9b78 023e 84c6 d53d 0e36 3c3d 290c db3d
00000340: 6a21 1f3e e187 61bd 1df7 1bbb db20 cd3d
00000350: a9f1 643d 107c 663d e55e 983c 220f 7b3b
00000360: a491 e33d 1ab5 04bc c4bc 9a3d a3d7 993c
00000370: 341f 903d 61ec 17bd 2f4b 7e3d a816 993c
00000380: 9596 f9bc 853f ad3c 21ea 69bc 8ed9 ec3d
00000390: 4766 843c 1e7f 703d 0772 d93d 61bd b03d
000003a0: 934f 0f3d d9c7 193e 997c c83d 8659 ed3d
000003b0: 915e b33c fbba 0e3e 80ed d03b 338c 903d
000003c0: 0e69 6f3d 7a94 6e3d efa7 123e 1f5b a83d
000003d0: 77b2 f5bd cefb 3fbc b8b5 343e 12b1 b3bc
000003e0: 30a2 6d3d 4ad0 5e3d 6fab 0f3e 5c33 233e
000003f0: 8a1e 2fbd 3911 2d3c b84c c13c 2874 113e

fcs.1.weight f4 [256, 256]
0.045140494 -0.019285444 -0.052262593 -0.11373582 -0.026990943 0.005778093 -0.03412481 0.048167326
-0.09939702 0.039518073 -0.060913906 0.011967321 -0.0732153 -0.045995727 -0.025353936 -0.07250076
0.07322221 -0.04623335 0.06755481 0.0063961297 -0.01331369 -0.06723192 0.005762889 -0.023141885
-0.010714154 0.00024389128 -0.07681562 -0.026367618 -0.10317574 -0.06842887 0.09749423 0.02934247
0.026728092 -0.14490397 -0.0989348 -0.09183067 -0.087783106 -0.07939415 0.06730067 0.020017276
0.04155648 -0.16099638 -0.016933028 -0.09280666 0.037367325 -0.05494073 0.05379122 -0.008823548
-0.1074683 -0.15211885 -0.18618396 -0.031926103 0.045530133 0.0689522 -0.004869798 -0.14062147
0.05273529 -0.095172085 -0.056432713 0.06121205 0.05185235 0.031063382 -0.020101389 0.004354369
0.03584065 -0.13388982 0.04587394 0.010006345 0.020007739 0.010151687 0.008956274 -0.03223392
-0.023177918 -0.035731886 -0.10262151 -0.04394019 -0.027405212 0.072434396 -0.14511652 0.062147144
0.006872828 -0.03392359 -0.022529932 0.028912164 0.093850575 -0.034166314 -0.013826416 -0.031641543
-0.01608648 -0.05023129 -0.035541866 -0.042941056 -0.09367203 -0.07859483 0.043693822 -0.019467901
-0.011753887 -0.036618564 0.0074122315 -0.056971148 -0.06930867 -0.14380828 0.016880123 0.0140858125
-0.068206735 -0.058954556 -0.006981437 -0.060972184 0.050262123 -2.446767e-05 -0.04756727 0.010040958
-0.0018948477 -0.11727214 0.06006654 -0.16150188 0.07379543 -0.20541805 0.020838197 0.056869812
-0.12550773 -0.017932707 -0.12818344 -0.0073219244 0.004548958 0.063794374 0.05229783 -0.00857834
-0.091344036 0.014754156 -0.03676038 0.13853623 -0.055575073 -0.06597875 0.013435936 0.034530245
-0.035339512 -0.06126354 0.01297683 0.027992945 -0.054788727 0.00012428995 -0.053346712 -0.1033192
0.047282185 0.0064915847 -0.031470552 0.059011824 -0.062633306 0.021538904 -0.013493836 -0.01985133
-0.033150025 0.05499038 0.07390475 0.19042817 -0.04274791 -0.018563392 -0.06483784 -0.05734158
0.0034668513 0.020934248 -0.080383 0.011811701 0.022245036 0.023964109 -0.09162683 -0.17983656
0.046799332 -0.024564175 -0.05358852 -0.14243934 -0.007976055 -0.043821696 -0.15195593 0.07177794
0.0233452 0.053322867 -0.028011307 -0.005836579 0.05198406 0.10222471 -0.093779266 -0.035906162
0.021297336 -0.03465864 -0.076604515 -0.085074216 -0.11536618 0.07893702 -0.0047482923 -0.07727252
-0.02276214 0.05891129 0.016826129 0.012679689 -0.004868263 -0.17207694 0.0852714 -0.029570147
-0.07921381 0.025431003 0.0010181171 -0.0839956 -0.014863062 0.02966146 -0.03221874 -0.037182115
-0.055285983 -0.024348596 0.004975377 -0.008925322 -0.018534882 -0.03391615 -0.13821435 0.044693228
0.03267661 -0.009549896 -0.064013645 -0.007382991 0.09118968 0.0002401396 -0.11050896 0.0141365705
0.056871 -0.07258731 -0.0028546103 -0.07499156 -0.049096268 0.05938724 -0.12604983 -0.02692499
-0.051800173 -0.062278084 -0.03452473 -0.113778576 -0.034611817 0.092304 -0.0004288765 -0.03297953
-0.03946327 -0.01870274 0.039161526 0.05895445 -0.033264183 0.07373582 -0.12915435 -0.030265668
-0.06419684 0.03465368 0.03117702 -0.08740249 -0.07623129 -0.073779136 0.027801413 -0.08533948
00000000: 3de5 383d 82fc 9dbc 4d11 56bd 53ee e8bd
00000010: 1c1c ddbc 2856 bd3b 75c6 0bbd 1a4b 453d
00000020: aa90 cbbd b4dd 213d dc80 79bd 9512 443c
00000030: e7f1 95bd 0466 3cbd 0fb3 cfbc 477b 94bd
00000040: 87f5 953d 2e5f 3dbd 2d5a 8a3d a096 d13b
00000050: aa21 5abc e4b0 89bd 9ed6 bc3b 0d94 bdbc
00000060: 6b8a 2fbc 11bd 7f39 8251 9dbd e700 d8bc
00000070: cd4d d3bd 6f24 8cbd 0eab c73d 9f5f f03c
00000080: dff4 da3c b561 14be 549e cabd b811 bcbd
00000090: a1c7 b3bd 6699 a2bd efd4 893d 45fb a33c
000000a0: 2137 2a3d 3cdc 24be 22b7 8abc 6b11 bebd
000000b0: 7b0e 193d 8809 61bd 2f54 5c3d a590 10bc
000000c0: 5718 dcbd 0bc5 1bbe 02a7 3ebe f2c4 02bd
000000d0: ce7d 3a3d d036 8d3d d492 9fbb 13ff 0fbe
000000e0: f600 583d 95e9 c2bd fd25 67bd 7db9 7a3d
000000f0: 2163 543d a278 fe3c abab a4bc 18af 8e3b
00000100: a5cd 123d 6a1a 09be 50e6 3b3d a7f1 233c
00000110: 45e7 a33c 4353 263c 56bd 123c b707 04bd
00000120: 9edf bdbc 995b 12bd 3a2b d2bd a1fa 33bd
00000130: e580 e0bc 7c58 943d 6d99 14be 018e 7e3d
00000140: 7635 e13b 76f3 0abd b190 b8bc 34d9 ec3c
00000150: bb34 c03d faf1 0bbd 3188 62bc 909a 01bd
00000160: cbc7 83bc 53bf 4dbd 5994 11bd f6e2 2fbd
00000170: 1fd7 bfbd 54f6 a0bd 4bf8 323d 267b 9fbc
00000180: 6093 40bc 59fd 15bd 4ee2 f23b 945a 69bd
00000190: b4f1 8dbd 7a42 13be 2f48 8a3c 2ec8 663c
000001a0: f9af 8bbd 557a 71bd 8ac4 e4bb f8bd 79bd
000001b0: a8df 4d3d ec3f cdb7 e6d5 42bd d582 243c
000001c0: 8a5c f8ba 602c f0bd 5508 763d c060 25be
000001d0: 0f22 973d 1c59 52be deb4 aa3c 52f0 683d
000001e0: 1985 00be 9de7 92bc 8542 03be c1ec efbb
000001f0: 6d0f 953b a0a6 823d 4036 563d 2a8c 0cbc
00000200: 9512 bbbd 6abb 713c 0d92 16bd 71dc 0d3e
00000210: b0a2 63bd de1f 87bd 6622 5c3c 966f 0d3d
00000220: 2ac0 10bd 7aef 7abd c59c 543c 7651 e53c
00000230: 256a 60bd d453 0239 1582 5abd 0499 d3bd
00000240: f7aa 413d 5cb7 d43b 44e7 00bd 62b6 713d
00000250: e445 80bd 5b72 b03c 4015 5dbc 429f a2bc
00000260: 52c8 07bd 983d 613d 605b 973d 9aff 423e
00000270: 6f18 2fbd 4112 98bc b4c9 84bd 01df 6abd
00000280: 1d34 633b 4d7e ab3c d89f a4bd dd85 413c
00000290: 393b b63c 6150 c43c d9a6 bbbd 1327 38be
000002a0: a8b0 3f3d cf3a c9bc a37f 5bbd 9edb 11be
000002b0: 00ae 02bc 617e 33bd 569a 1bbe 5000 933d
000002c0: 6f3e bf3c 1469 5a3d f877 e5bc c640 bfbb
000002d0: 3ded 543d 305b d13d 580f c0bd 5712 13bd
000002e0: c077 ae3c 38f6 0dbd d4e2 9cbd 643b aebd
000002f0: 1b45 ecbd bba9 a13d 9097 9bbb 0e41 9ebd
00000300: ab77 babc f74c 713d f3d6 893c 78be 4f3c
00000310: f385 9fbb f034 30be c6a2 ae3d 183d f2bc
00000320: da3a a2bd ae54 d03c 5772 853a e305 acbd
00000330: 3384 73bc 97fc f23c ccf7 03bd 464c 18bd
00000340: 8e73 62bd b576 c7bc 7d08 a33b 843b 12bc
00000350: 77d6 97bc a9eb 0abd 1088 0dbe 3f10 373d
00000360: e9d7 053d 2b77 1cbc 9619 83bd 04ed f1bb
00000370: a8c1 ba3d fccd 7b39 8652 e2bd 139d 673c
00000380: 91f1 683d a8a8 94bd 6a14 3bbb 2d95 99bd
00000390: 2b19 49bd 0940 733d 3513 01be cc91 dcbc
000003a0: 6b2c 54bd 4e17 7fbd ce69 0dbd be04 e9bd
000003b0: 1fc5 0dbd e109 bd3d d4da e0b9 8b15 07bd
000003c0: 3da4 21bd 7d36 99bc d667 203d 397a 713d
000003d0: 0640 08bd ce02 973d 0a41 04be b5ef f7bc
000003e0: a279 83bd 04f1 0d3d f366 ff3c 1400 b3bd
000003f0: 271f 9cbd 8419 97bd cabf e33c 77c6 aebd

fcs.1.bias f4 [256]
0.0866169 0.07242256 0.11652695 0.13102771 0.13748078 0.09065059 0.054861035 0.14338063
0.049051296 0.0869868 0.063486606 0.10587576 0.119091555 0.14683683 0.09510544 0.058761816
0.09830172 0.04662991 0.10683537 0.120136335 -0.04190242 0.18360114 0.16101004 0.086841136
0.072129 0.106536366 0.14001289 -0.0043445583 0.11622163 0.16155238 0.17127956 0.10789606
0.060485255 -0.07208464 0.04719865 0.08684664 0.06438697 0.043651313 0.086397946 0.09943736
0.16596802 0.07736392 0.11198808 0.067178525 0.18894722 0.08141157 0.10734318 0.084070124
0.12240308 0.09297147 0.051347815 0.13814662 0.07603572 0.08835278 0.02752381 0.112825476
0.08912477 0.04246939 0.08378216 0.06230356 0.0701739 0.09706343 0.06559808 0.067791454
0.104121864 0.07011544 0.12563755 0.08130226 0.08144707 0.05690511 0.1340769 0.04769611
0.07653661 0.038176164 0.14002809 0.054149523 0.13032046 0.12252523 0.027868416 0.07583833
0.14815806 0.07073279 0.08570478 0.09307285 -0.05173291 0.10700396 0.08678209 0.11292434
0.134492 0.11099049 0.08635239 0.061248094 0.089143895 0.12421336 0.08314277 0.06710384
0.08559165 0.09945449 0.15466136 0.15569781 0.12274304 0.0842106 0.123098224 0.084743254
0.09292076 0.07263976 0.07851269 0.0033938193 0.09192734 0.12422847 0.06950318 0.13973887
0.1498826 0.09288573 0.093842484 0.10688174 0.06602416 0.11175977 0.14275265 0.09602107
0.07612172 0.116902076 0.144829 -0.06624242 0.06822675 0.1508234 0.12555328 0.1279256
0.09505891 0.07621013 0.03898641 0.12279696 0.09449041 0.1068203 0.10941458 0.16905978
0.101833165 0.061151963 0.1645136 0.061970625 0.09600194 0.0807435 0.10710146 0.07106052
0.111786686 0.14697039 0.12142022 0.08163661 0.115077674 0.015415641 0.121855445 0.038754977
0.11637033 0.04935355 0.12915026 0.11193959 0.102131374 0.15632468 0.13414747 0.054905903
0.022732316 0.08236537 0.12701926 0.09066895 0.12157021 0.06907924 0.06810119 0.19180654
0.11016372 0.11115532 0.08204354 0.09115281 -0.030832324 0.086739816 0.12619925 0.13242748
0.118298166 0.0749408 0.07511003 0.09999145 0.07062888 0.13029885 0.1114116 0.1338298
0.08378215 0.077098615 0.13712716 0.08664244 0.086939916 0.15185419 0.095906824 0.12004751
0.07608398 0.14874607 0.18763636 0.08569552 0.12287784 0.18578131 0.1322395 -0.10183418
0.011669384 0.09374373 0.13135341 0.10294347 0.07281743 -0.032193277 0.16473019 0.08640743
0.071670055 0.08026714 0.0915108 0.088876024 0.07002654 0.15009627 0.15559784 -0.021712799
0.12749591 0.07364486 0.08002353 0.12350917 0.08077267 0.0020850878 0.07838889 0.07472403
0.10423605 0.17469157 0.07198607 0.16754702 0.09603475 0.14004867 0.13714665 0.07640816
0.08723386 0.08076627 0.08115301 0.10593309 0.15266629 0.07988742 0.07818698 0.14459021
0.07764265 0.16135317 0.13591488 0.067623064 0.11370633 0.09072586 0.0833512 0.12196812
-0.007421156 0.11488442 0.11627255 0.09123354 0.06737864 0.17174411 0.052684493 0.00073944
00000000: 3464 b13d 4752 943d aea5 ee3d 212c 063e
00000010: c3c7 0c3e 04a7 b93d f7b5 603d 5fd2 123e
00000020: 03ea 483d 2326 b23d 4405 823d 64d5 d83d
00000030: 46e6 f33d 655c 163e a4c6 c23d 3bb0 703d
00000040: 6a52 c93d 01ff 3e3d 81cc da3d 0a0a f63d
00000050: dfa1 2bbd f001 3c3e d1df 243e c4d9 b13d
00000060: 5fb8 933d bd2f da3d 8a5f 0f3e cc5c 8ebb
00000070: 9b05 ee3d fd6d 253e e963 2f3e 9cf8 dc3d
00000080: 63bf 773d 1da1 93bd 5f53 413d a7dc b13d
00000090: 51dd 833d b8cb 323d 68f1 b03d d1a5 cb3d
000000a0: 85f3 293e fa70 9e3d 025a e53d e594 893d
000000b0: 617b 413e 1cbb a63d bed6 db3d f52c ac3d
000000c0: 77ae fa3d d367 be3d 1652 523d 4f76 0d3e
000000d0: 9eb8 9b3d 4df2 b43d 9d79 e13c 0b11 e73d
000000e0: 0c87 b63d 62f4 2d3d fb95 ab3d 0532 7f3d
000000f0: 55b7 8f3d 31c9 c63d 4958 863d 3fd6 8a3d
00000100: d83d d53d af98 8f3d 21a7 003e cd81 a63d
00000110: b9cd a63d 5515 693d 744b 093e ff5c 433d
00000120: 3abf 9c3d 9c5e 1c3d 8663 0f3e e4cb 5d3d
00000130: ba72 053e 82ee fa3d 4e4c e43c 2051 9b3d
00000140: bfb6 173e 5adc 903d fd85 af3d fa9c be3d
00000150: e3e5 53bd e424 db3d cfba b13d e044 e73d
00000160: 45b8 093e fb4e e33d 86d9 b03d 48df 7a3d
00000170: 1391 b63d 9363 fe3d c246 aa3d bd6d 893d
00000180: ad4a af3d ccae cb3d 8c5f 1e3e 3f6f 1f3e
00000190: b460 fb3d 9b76 ac3d ec1a fc3d df8d ad3d
000001a0: 3d4d be3d 28c4 943d 43cb a03d d76a 5e3b
000001b0: 6744 bc3d 7f6b fe3d af57 8e3d b517 0f3e
000001c0: d37a 193e e03a be3d 7d30 c03d d0e4 da3d
000001d0: ad37 873d 4ee2 e43d c02d 123e b2a6 c43d
000001e0: b4e5 9b3d 5b6a ef3d 0e4e 143e 1baa 87bd
000001f0: 77ba 8b3d 7371 1a3e 0a91 003e eefe 023e
00000200: 3fae c23d 0e14 9c3d 37b0 1f3d f97c fb3d
00000210: 3084 c13d 9ac4 da3d c014 e03d 021e 2d3e
00000220: e88d d03d 7b7a 7a3d 4176 283e e9d4 7d3d
00000230: aa9c c43d d95c a53d 0358 db3d 2e88 913d
00000240: 6bf0 e43d 687f 163e 2aab f83d 1831 a73d
00000250: d8ad eb3d e291 7c3c 598f f93d 8abd 1e3d
00000260: 9153 ee3d f326 4a3d f73f 043e 9540 e53d
00000270: 412a d13d 9413 203e f45d 093e 03e5 603d
00000280: 1f39 ba3c 2daf a83d 5611 023e a4b0 b93d
00000290: cdf9 f83d 6b79 8d3d a378 8b3d ef68 443e
000002a0: 849d e13d 67a5 e33d 7206 a83d 53ae ba3d
000002b0: 1294 fcbc a5a4 b13d 603a 013e 129b 073e
000002c0: 4f46 f23d 907a 993d 4ad3 993d 51c8 cc3d
000002d0: e0a5 903d 106d 053e c42b e43d ae0a 093e
000002e0: fa95 ab3d e1e5 9d3d 106b 0c3e 9771 b13d
000002f0: 8e0d b23d aa7f 1b3e cc6a c43d 78db f53d
00000300: ebd1 9b3d e450 183e bf23 403e 2281 af3d
00000310: 61a7 fb3d 753d 3e3e cb69 073e 708e d0bd
00000320: f230 3f3c b6fc bf3d 8281 063e 07d4 d23d
00000330: 4e21 953d 19dd 03bd 08af 283e 61f6 b03d
00000340: c0c7 923d 1963 a43d 046a bb3d a204 b63d
00000350: 136a 8f3d d6b2 193e 0a55 1f3e 0adf b1bc
00000360: 4a8e 023e 1ed3 963d 60e3 a33d 60f2 fc3d
00000370: 246c a53d f8a5 083b 5b8a a03d ea08 993d
00000380: b679 d53d 59e2 323e 6f6d 933d 7291 2b3e
00000390: dead c43d eb68 0f3e 2c70 0c3e e27b 9c3d
000003a0: aaa7 b23d c968 a53d 8d33 a63d 73f3 d83d
000003b0: 8d54 1c3e 049c a33d 7f20 a03d 750f 143e
000003c0: 1c03 9f3d c439 253e 452d 0b3e f67d 8a3d
000003d0: ddde e83d 7bce b93d 09b4 aa3d 6cca f93d
000003e0: 2b2d f3bb 8648 eb3d 4d20 ee3d a6d8 ba3d
000003f0: d0fd 893d b0dd 2f3e b2cb 573d fad6 413a

fcs.2.weight f4 [256, 256]
-0.065734126 0.03036079 -0.039057158 0.0896337 0.028227022 -0.020623595 0.022966826 0.039741814
-0.10705055 0.008428323 0.09298713 0.029918239 -0.0913318 -0.102834925 -0.068272315 -0.045317892
-0.10826412 -0.09683826 0.07274873 0.049174637 -0.18284978 0.021068789 -0.13185786 0.019860754
-0.11412737 -0.065079756 0.04029383 -0.05585156 -0.011164016 -0.068276115 -0.023027878 -0.061678834
-0.049779054 -0.08464693 -0.051338777 0.1755719 0.027186394 -0.0800466 0.047422137 -0.008914711
0.04561304 0.039663557 0.0073108766 0.008332316 0.010534874 0.032995068 -0.053855583 0.017660256
0.036374163 0.17108425 -0.10914629 0.038910907 -0.053300276 -0.028822483 -0.15539257 -0.082324795
-0.02705867 0.05386061 -0.002666694 0.16418645 0.042537656 0.06581038 -0.0075058215 -0.09440652
-0.14334667 -0.054618478 0.012395643 -0.00984043 0.08387908 -0.020545818 -0.08622173 0.01144593
0.03614771 0.016908143 -0.068813674 -0.0146639645 0.06898787 0.10916588 -0.17136233 -0.024737038
-0.03514083 0.017711308 0.05876097 -0.025633585 0.03622549 -0.01649458 -0.041905712 0.0765343
-0.018890109 -0.082466096 -0.05245704 0.0011475234 0.006287437 0.0029874078 -0.0099399695 0.060912076
0.12105668 0.06309087 0.094759874 -0.06667505 0.05545036 -0.029389586 -0.14411639 0.020947412
-0.011296513 -0.036892787 0.013610239 0.0633141 0.002001521 0.0030801764 -0.027427314 0.019013971
-0.012545344 0.025066115 -0.05205126 0.044137385 0.009904647 0.08200807 -0.028870247 -0.0050510187
-0.0218346 0.06919089 -0.09157967 0.0016344202 0.05313762 -0.035069734 -0.022500178 -0.048687924
0.006381651 0.027977578 -0.20359895 -0.055459045 -0.01250021 -0.023806276 0.016009076 0.048419423
0.08378771 -0.091643855 0.06027971 0.0073402803 0.012714787 -0.04421396 0.0058822418 -0.040511657
0.05465882 0.03364654 -0.014863494 0.028001154 -0.047582895 0.060191117 0.028260786 0.05453871
-0.040354285 0.085642494 0.009100439 0.03591192 -0.00527633 -0.11458989 0.04114813 -0.037031163
0.023049608 0.0074611343 0.0042919978 -0.1116458 -0.11284696 0.0066360664 0.017137283 0.040992618
-0.01763876 -0.005623116 0.050723005 0.08232119 -0.025402041 0.049492557 -0.17575912 -0.09229544
-0.077112846 0.037543535 0.021114612 0.04782422 -0.016748287 0.12539689 0.0017513242 -7.7923316e-05
-0.06696458 -8.920411e-05 0.13811582 -0.1361342 0.057462912 0.0005806625 -0.038626768 0.008267137
0.017105494 0.0019270275 -0.09640409 -0.049850125 -0.07738258 -0.016769808 -0.066015124 -0.243303
0.0036416734 0.021302475 -0.10246811 -0.035341244 0.026105411 -0.13753827 -0.005159517 -0.1143624
-0.10096525 0.008891563 -0.04133507 0.00976657 -0.06846803 -0.06006423 -0.06867008 -0.13165471
0.06331004 0.031693492 0.045909196 -0.04919411 -0.2133101 -0.044793054 0.069435894 0.003496837
-0.04738711 0.019379346 0.042750403 0.018690642 -0.036423218 -0.00088114454 -0.07302937 -0.10539549
0.043160923 0.054466933 0.02923488 -0.07538823 -0.032336384 0.004694505 0.09144006 0.002888105
-0.058249753 0.08135418 -0.198847 0.011356684 -0.009737743 0.016602436 0.070214145 0.052932374
0.11519191 -0.029275084 -0.04973779 -0.0006309065 -0.037964396 -0.12276759 -0.05733078 0.024932446
00000000: 9d9f 86bd 31b7 f83c 66fa 1fbd e091 b73d
00000010: 5b3c e73c d0f2 a8bc ed24 bc3c 50c8 223d
00000020: 523d dbbd f316 0a3c 0970 be3d 1817 f53c
00000030: 2b0c bbbd 1e9b d2bd 5bd2 8bbd 419f 39bd
00000040: 94b9 ddbd 2353 c6bd 49fd 943d 586b 493d
00000050: f93c 3bbe 7498 ac3c bf05 07be 05b3 a23c
00000060: 9cbb e9bd 8948 85bd 250b 253d 9bc4 64bd
00000070: 47e9 36bc 59d4 8bbd f6a4 bcbc f2a2 7cbd
00000080: 1fe5 4bbd 5f5b adbd 9c48 52bd 1fc9 333e
00000090: 00b6 de3c 79ef a3bd b73d 423d 020f 12bc
000000a0: bdd4 3a3d 4176 223d 1490 ef3b 4484 083c
000000b0: 779a 2c3c d625 073d ac97 5cbd 3eac 903c
000000c0: 13fd 143d b630 2f3e 1788 dfbd 0b61 1f3d
000000d0: 6451 5abd 211d ecbc 3b1f 1fbe e799 a8bd
000000e0: 25aa ddbc f19c 5c3d b4c3 2ebb 7e20 283e
000000f0: f73b 2e3d 98c7 863d 65f3 f5bb 3558 c1bd
00000100: 78c9 12be a0b7 5fbd 1817 4b3c c139 21bc
00000110: ccc8 ab3d b44f a8bc 0595 b0bd b687 3b3c
00000120: 9f0f 143d f282 8a3c 2fee 8cbd 2041 70bc
00000130: 8349 8d3d 5c92 df3d 9b79 2fbe 54a5 cabc
00000140: d5ef 0fbd 4e17 913c 58af 703d 86fd d1bc
00000150: 2e61 143d a41f 87bc 53a5 2bbd 04be 9c3d
00000160: 6ebf 9abc fce3 a8bd 31dd 56bd 7f68 963a
00000170: d806 ce3b 63c8 433b 41db 22bc f17e 793d
00000180: 91ec f73d c935 813d 7711 c23d ee8c 88bd
00000190: eb1f 633d 6ec2 f0bc 3f93 13be e899 ab3c
000001a0: 0215 39bc e41c 17bd 7bfd 5e3c d3aa 813d
000001b0: f32b 033b c9dc 493b 3faf e0bc 30c3 9b3c
000001c0: fd8a 4dbc 7457 cd3c b433 55bd 67c9 343d
000001d0: 1a47 223c d9f3 a73d 4c81 ecbc 0483 a5bb
000001e0: 7ade b2bc f4b3 8d3d 1f8e bbbd 0b3a d63a
000001f0: d5a6 593d 48a5 0fbd 4b52 b8bc fd6c 47bd
00000200: 2b1d d13b 3c31 e53c 3e7c 50be 0629 63bd
00000210: aecd 4cbc 6105 c3bc 7725 833c 7253 463d
00000220: e498 ab3d c6af bbbd dbe7 763d bc86 f03b
00000230: af51 503c b319 35bd d2bf c03b 8def 25bd
00000240: ede1 5f3d f4d0 093d 0386 73bc ad62 e53c
00000250: 48e6 42bd f68a 763d 2a83 e73c fb63 5f3d
00000260: 894a 25bd 5565 af3d 021a 153c 6118 133d
00000270: 10e5 acbb 1bae eabd f18a 283d fdad 17bd
00000280: 88d2 bc3c 887c f43b e3a3 8c3b 8ea6 e4bd
00000290: 4f1c e7bd 5c73 d93b 7d63 8c3c e0e7 273d
000002a0: 297f 90bc 1e42 b8bb edc2 4f3d 0398 a83d
000002b0: f117 d0bc b5b8 4a3d 33fa 33be 6405 bdbd
000002c0: 57ed 9dbd 40c7 193d 8df8 ac3c 54e3 433d
000002d0: b433 89bc 0b68 003e b08c e53a c36a a3b8
000002e0: ba24 89bd 1813 bbb8 3c6e 0d3e c466 0bbe
000002f0: 3b5e 6b3d 9a37 183a 1a37 1ebd e372 073c
00000300: d220 8c3c 5094 fc3a 826f c5bd a52f 4cbd
00000310: c27a 9ebd d660 89bc f032 87bd 6c24 79be
00000320: 24a9 6e3b 8782 ae3c cdda d1bd fbc1 10bd
00000330: 04db d53c d5d6 0cbe 2a11 a9bb d536 eabd
00000340: dec6 cebd ebad 113c f64e 29bd f703 203c
00000350: f738 8cbd e905 76bd e6a2 8cbd 7ed0 06be
00000360: b2a8 813d 09d1 013d 480b 3c3d c37f 49bd
00000370: f66d 5abe ec78 37bd 6834 8e3d 312b 653b
00000380: fc18 42bd 6fc1 9e3c 0c1b 2f3d 1e1d 993c
00000390: 8330 15bd 9cfc 66ba 6c90 95bd 97d9 d7bd
000003a0: 82c9 303d b818 5f3d fd7d ef3c 2565 9abd
000003b0: 2873 04bd 5dd4 993b ed44 bb3d 5d46 3d3b
000003c0: 4b97 6ebd 059d a63d 8c9e 4bbe 6311 3a3c
000003d0: 0e8b 1fbc d501 883c 6fcc 8f3d 9ecf 583d
000003e0: bce9 eb3d 4dd2 efbc dab9 4bbd 6b63 25ba
000003f0: 8e80 1bbd 936d fbbd aed3 6abd 213f cc3c

fcs.2.bias f4 [256]
0.12300267 0.112139314 0.13359185 0.14064087 0.09259857 0.13349226 0.12858143 0.12705679
0.090960525 0.13417569 0.19959812 0.16983283 0.08967207 0.028686998 0.101518966 0.053418655
0.15528584 0.14137629 0.15948178 0.13381477 0.098957464 0.09373713 0.11828246 0.14171751
0.12303864 0.104928866 0.10233055 0.1360284 0.11991781 0.15777573 0.15109734 0.12618905
0.17923051 0.09405263 0.09952045 0.06664855 0.090814546 0.061738335 0.13641638 0.05062888
0.13381507 0.15781493 0.1358059 0.113988 0.14670208 0.15374705 0.13354933 0.05152955
0.13480754 0.073568374 0.10771553 0.13536252 0.13781404 0.15927039 0.06393017 0.1954134
0.16165222 0.068681106 0.06410472 0.1386425 0.014626699 0.021048836 0.1509498 0.0812497
0.12432595 0.12978993 0.15450844 0.12773211 0.21718433 0.059642136 0.1124504 0.06437577
0.045548603 0.110371366 0.08476544 0.09656714 0.11877273 0.069079235 0.13542907 0.18390346
0.14657068 0.07683206 0.105401725 0.06974855 0.095042594 0.09197424 0.07968408 0.056308605
0.118202396 0.091786295 0.07900207 0.18017559 0.022280006 0.10824046 0.11686878 0.097796634
0.121054344 0.12831916 0.18843842 0.09130707 0.08246813 0.015077734 0.11331816 0.086175166
0.13833539 0.06480264 0.11072849 0.07904841 0.104009755 0.023282224 0.17587298 0.16387555
0.092670456 0.10264791 0.20732604 0.079022124 0.16814397 0.143387 0.12887901 0.120668665
0.11713011 0.15781215 0.04949415 0.08364834 0.14329861 0.19751889 0.10267632 0.11913265
0.15683101 0.09332117 0.064011194 0.029217571 -0.009484327 0.06449047 0.1251962 0.15528938
0.08374355 0.10267985 0.11097887 -0.014999758 0.1227128 0.11290436 0.06749223 0.14994378
0.10718815 0.18094154 0.100767076 0.06389661 0.14363447 0.08162501 0.07380933 0.11928715
0.096439525 0.074168466 0.10982048 0.09937178 0.07590861 -0.058772247 0.085434385 0.10405664
0.060678124 0.05192143 -0.035783377 0.095837064 0.09394547 0.08855342 0.050279528 0.08552982
0.099577084 0.16115159 0.10384565 0.096213266 0.11552874 0.00927788 0.10409604 0.15671194
0.12284763 0.08781316 0.10302842 0.15324055 0.11568824 0.050238 0.121447735 0.10412227
0.099620186 0.15531485 0.091479 0.10903771 0.1501775 0.16453831 0.17101084 0.14215171
0.1054427 0.053065557 0.17231941 0.096399516 0.08877947 0.1148843 0.027161473 0.07308625
0.07551931 0.0853888 0.088200144 0.15152924 0.10204816 0.15920243 0.11247939 0.15443763
0.0767969 0.13847892 0.06920967 0.10590135 0.08111473 0.081787646 0.07651916 0.078965634
0.12776655 0.13782021 0.12630986 0.18020406 0.12177845 0.10895347 0.06842409 0.06583188
0.16471945 0.11935992 0.07811484 0.14055409 0.081020676 0.13724343 0.13782068 0.10993116
0.066390246 0.07623581 0.12512568 0.12486558 0.112763405 0.07425667 0.14487314 0.11318939
0.07783238 0.12944707 0.12668826 0.08514041 0.1451498 0.10816378 0.07397587 0.1299699
0.15419118 0.13068289 0.06234393 0.11624554 0.06096709 0.10886679 0.105961986 0.12110204
00000000: d3e8 fb3d 4ca9 e53d 4dcc 083e 2904 103e
00000010: 52a4 bd3d 32b2 083e daaa 033e 2d1b 023e
00000020: 8349 ba3d 5a65 093e 7363 4c3e a8e8 2d3e
00000030: fea5 b73d ff00 eb3c 2de9 cf3d 85cd 5a3d
00000040: 4003 1f3e f2c4 103e 314f 233e bd06 093e
00000050: 36aa ca3d 41f9 bf3d 133e f23d 651e 113e
00000060: affb fb3d f2e4 d63d ae92 d13d 074b 0b3e
00000070: 7897 f53d f68f 213e 43b9 1a3e b437 013e
00000080: 3488 373e aa9e c03d 61d1 cb3d 097f 883d
00000090: fafc b93d 56e1 7c3d bcb0 0b3e 3a60 4f3d
000000a0: d106 093e 3d9a 213e b410 0b3e 8a72 e93d
000000b0: 1239 163e de6f 1d3e 28c1 083e a610 533d
000000c0: fd0a 0a3e 04ab 963d f699 dc3d 799c 0a3e
000000d0: 201f 0d3e c717 233e d2ed 823d 731a 483e
000000e0: 2988 253e aea8 8c3d 5649 833d 4df8 0d3e
000000f0: d2a4 6f3c 9c6e ac3c 9692 1a3e 3e66 a63d
00000100: 9b9e fe3d a7e7 043e 7637 1e3e 35cc 023e
00000110: 9265 5e3e 504b 743d 654c e63d 72d7 833d
00000120: 2c91 3a3d 620a e23d 8199 ad3d fec4 c53d
00000130: 1e3f f33d 6a79 8d3d ebad 0a3e 3051 3c3e
00000140: a016 163e 215a 9d3d dcdc d73d 54d8 8e3d
00000150: b1a5 c23d fe5c bc3d 6831 a33d daa3 663d
00000160: 1914 f23d 74fa bb3d d6cb a13d f37f 383e
00000170: 8f84 b63c 2dad dd3d e658 ef3d 9a49 c83d
00000180: 57eb f73d 1966 033e 00f6 403e 33ff ba3d
00000190: 0de5 a83d 9a08 773c 5a13 e83d 9b7c b03d
000001a0: cba7 0d3e 3fb7 843d 9ec5 e23d 22e4 a13d
000001b0: 1103 d53d 5dba be3c 0c18 343e fece 273e
000001c0: 02ca bd3d 1139 d23d 474d 543e 5ad6 a13d
000001d0: ef2d 2c3e 0bd4 123e dcf8 033e 2221 f73d
000001e0: e9e1 ef3d 8299 213e 61ba 4a3d d24f ab3d
000001f0: dfbc 123e 6442 4a3e f647 d23d d2fb f33d
00000200: 4f98 203e 2b1f bf3d 4d18 833d b059 ef3c
00000210: 2764 1bbc 9413 843d 6f33 003e 2e04 1f3e
00000220: bd81 ab3d d049 d23d e448 e33d 8cc1 75bc
00000230: d950 fb3d 673a e73d 5e39 8a3d dd8a 193e
00000240: 7685 db3d bd48 393e f85e ce3d 3adc 823d
00000250: ea14 133e 032b a73d 5929 973d d24c f43d
00000260: 1682 c53d a3e5 973d 8fe9 e03d 6f83 cb3d
00000270: f975 9b3d 2bbb 70bd 39f8 ae3d a61b d53d
00000280: a089 783d 91ab 543d 9791 12bd 3946 c43d
00000290: 7c66 c03d 7f5b b53d e8f1 4d3d 422a af3d
000002a0: 12ef cb3d ec04 253e 07ad d43d 760b c53d
000002b0: 559a ec3d 4002 183c 4e30 d53d 1879 203e
000002c0: 8a97 fb3d 63d7 b33d 9000 d33d 17eb 1c3e
000002d0: f5ed ec3d 5cc6 4d3d 97b9 f83d 0f3e d53d
000002e0: ab05 cc3d db0a 1f3e 5859 bb3d 2a4f df3d
000002f0: 21c8 193e bb7c 283e 771d 2f3e 3890 113e
00000300: 58f2 d73d 455b 593d 8074 303e 1c6d c53d
00000310: 03d2 b53d 7648 eb3d bd81 de3c 3eae 953d
00000320: dea9 9a3d 53e0 ae3d 47a2 b43d 7b2a 1b3e
00000330: a0fe d03d f605 233e 985b e63d e624 1e3e
00000340: b147 9d3d 6bcd 0d3e cdbd 8d3d cfe2 d83d
00000350: 7b1f a63d 4880 a73d 14b6 9c3d bcb8 a13d
00000360: 3cd5 023e be20 0d3e 5f57 013e 6a87 383e
00000370: fb66 f93d ff22 df3d ee21 8c3d ddd2 863d
00000380: 37ac 283e f972 f43d acfa 9f3d 69ed 0f3e
00000390: 2bee a53d 8b89 0c3e dd20 0d3e 9723 e13d
000003a0: 9cf7 873d 8521 9c3d f220 003e 86b9 ff3d
000003b0: 80f0 e63d e213 983d a059 143e d7cf e73d
000003c0: 9566 9f3d c68d 043e 91ba 013e 185e ae3d
000003d0: 26a2 143e f984 dd3d a980 973d d416 053e
000003e0: 4be4 1d3e bcd1 053e 595c 7f3d 2412 ee3d
000003f0: a1b8 793d 8df5 de3d 9902 d93d 5904 f83d

last_fc.weight f4 [2, 256]
-0.0330978 0.011664488 0.024796203 0.004213548 0.124770045 -0.067969635 -0.0035458535 0.0068283933
-0.004924658 0.014422783 -0.09901889 -0.084571555 0.015649937 -0.1070702 -0.03662646 0.020681776
-0.01829962 -0.004287567 -0.025139755 0.014762836 0.0054023024 0.034459725 -0.085266225 -0.0053499336
-0.06766936 -0.017806308 -0.0008849686 -0.08421923 -0.014030427 0.20536578 -0.011610282 -0.012390749
-0.13147935 0.018142834 -0.0017248574 -0.045320548 0.00914942 -0.0006308135 0.0013664868 0.09845266
0.014555059 -0.05359037 0.0031787327 0.17297323 -0.02981063 -0.04341776 -0.0031731436 -0.036629632
-0.06096638 0.027601812 -0.017084489 -0.018423012 -0.055134125 -0.07598811 -0.068560444 -0.14177346
-0.030428408 0.0048971674 0.0011431052 -0.04992061 0.17905104 0.032574363 0.021047316 0.0004649097
0.009671262 0.012359879 0.006674814 -0.021814104 -0.10905663 0.0024356463 -0.019992175 0.0001544076
0.0155509105 0.025717247 -0.0031571114 0.014654794 -0.028671045 -0.0024764647 -0.015245546 0.010780523
-0.008472759 0.027990172 0.045730278 -0.0026273248 -0.026589753 0.0031998334 0.029226638 -0.011820588
0.014869259 -0.037298556 -0.011628788 0.15712282 -0.055861454 -0.0070553455 -0.012442152 -0.00940995
0.02423744 0.015827766 -0.114854075 0.06361095 -0.019583188 -0.05110516 0.0037805522 -0.015362203
0.015355468 -0.023368511 -0.03311459 0.004547012 0.011817105 0.023017555 -0.07099697 -0.03418334
0.0038604424 0.017113032 -0.105150595 0.0011430681 -0.0020267009 -0.08215042 0.051943026 -0.0023730213
0.02537583 -0.09562162 0.009962681 -0.00028555864 -0.008984331 -0.07485859 0.00806699 0.026165191
-0.044718523 -0.03953202 -0.009064884 -0.06736137 -0.108002566 0.040386133 0.0027271595 -0.03757973
0.014560465 0.0026718725 -0.010307696 -0.060360327 0.005172859 0.015423004 0.0051308684 -0.0035542413
-0.0048529585 -0.07582728 0.0032436107 -0.002743434 -0.08814929 -0.011894033 0.01095036 -0.014652268
0.07446397 -0.024440145 -0.009862835 0.044592485 0.016319677 -0.13239166 0.014684736 -0.0010764288
-0.008884466 0.004686206 0.20164542 -0.0032631634 -0.0008790535 -0.011872569 -0.0052668005 0.0021999134
-0.011548093 -0.12755175 0.064988084 0.004730497 -0.005307901 -0.063720755 0.011642979 0.08973896
0.019946005 0.010006708 0.0057232683 -0.11852519 -0.008423877 -0.0018296618 0.027620023 0.0067592463
0.007700517 -0.08023705 -0.007892577 -0.0456653 -0.008311214 0.032438893 0.111471914 -0.049019903
0.040371776 0.00614562 0.0026731968 -0.014838462 0.055739522 -0.02511919 -0.07281706 -0.0061155157
-0.000559852 -0.09136078 -0.0015296894 0.004861076 0.0022025795 -0.051694896 -0.0048263134 -0.024749769
0.038908467 -0.014379715 -0.0024743716 -0.018356169 0.026552768 0.0021080489 -0.01016397 -0.026417678
-0.038664486 0.0029465363 -0.0009022987 -0.12801906 0.0021099118 -0.004559536 -0.0028494874 -0.01798413
-0.11238865 -0.024879433 -0.0057185767 0.0049611614 -0.0065786787 -0.007882174 -0.0025779668 -0.057088718
0.014093487 0.009089636 -0.044761714 -0.0047312686 0.0068116738 -0.07820088 0.0069218357 0.002169889
-0.00646779 -0.00534692 0.009076822 -0.032035977 -0.04485668 -0.018486492 0.003575872 -0.016454814
0.17413466 -0.018797845 0.0026866423 0.03468597 -0.0009217037 0.0033185866 0.004980434 -0.024860743
00000000: 8f91 07bd 691c 3f3c 6821 cb3c cd11 8a3b
00000010: 7087 ff3d aa33 8bbd 8d61 68bb b7c0 df3b
00000020: 075f a1bb 894d 6c3c 6aca cabd da33 adbd
00000030: 4c34 803c 9f47 dbbd a005 16bd d46c a93c
00000040: 16e9 95bc b87e 8cbb e3f1 cdbc d2df 713c
00000050: cc05 b13b a425 0d3d 0fa0 aebd 7f4e afbb
00000060: 3c96 8abd 89de 91bc 3dfd 67ba 227b acbd
00000070: e0df 65bc 684b 523e 0d39 3ebc 9102 4bbc
00000080: 86a2 06be 48a0 943c 9c14 e2ba 0aa2 39bd
00000090: 73e7 153c 2d5d 25ba b01b b33a 8ca1 c93d
000000a0: 5878 6e3c 9381 5bbd 4952 503b e51f 313e
000000b0: 6c35 f4bc d2d6 31bd 84f4 4fbb f408 16bd
000000c0: e2b7 79bd 321d e23c c5f4 8bbc dbeb 96bc
000000d0: 52d4 61bd a79f 9bbd 6b69 8cbd 102d 11be
000000e0: ff44 f9bc 6b78 a03b 3fd4 953a 8e79 4cbd
000000f0: 2859 373e b26c 053d 6c6b ac3c 20bf f339
00000100: 3774 1e3c 1781 4a3c 66b8 da3b 7eb3 b2bc
00000110: 1559 dfbd 5d9f 1f3b a1c6 a3bc 79e8 2139
00000120: 3fc9 7e3c faac d23c 8ae7 4ebb a91a 703c
00000130: 8adf eabc 2f4c 22bb 74c8 79bc caa0 303c
00000140: 54d1 0abc a54b e53c ac4f 3b3d 322f 2cbb
00000150: c1d2 d9bc 4cb4 513b b46c ef3c 24ab 41bc
00000160: 319e 733c 5fc6 18bd ac86 3ebc cee4 203e
00000170: fbce 64bd 8730 e7bb 2bda 4bbc 312c 1abc
00000180: 998d c63c 3ba9 813c 9d38 ebbd 7546 823d
00000190: ec6c a0bc a553 51bd 24c3 773b c0b1 7bbc
000001a0: 8095 7b3c 526f bfbc 2aa3 07bd 1aff 943b
000001b0: 889c 413c 508f bc3c dc66 91bd d403 0cbd
000001c0: 7aff 7c3b a130 8c3c 3259 d7bd 00d3 953a
000001d0: 66d2 04bb 7b3e a8bd 36c2 543d b184 1bbb
000001e0: f9e0 cf3c 45d5 c3bd 833a 233c 08b7 95b9
000001f0: 0433 13bc 764f 99bd 692b 043c 6258 d63c
00000200: c52a 37bd 54ec 21bd e184 14bc c2f4 89bd
00000210: 7330 ddbd ee6b 253d 25ba 323b 34ed 19bd
00000220: 048f 6e3c 951a 2f3b 9ce1 28bc 643c 77bd
00000230: 1681 a93b c4b0 7c3c d820 a83b 46ee 68bb
00000240: 9105 9fbb 554b 9bbd c292 543b 2fcb 33bb
00000250: 9d87 b4bd 31df 42bc 2469 333c 1110 70bc
00000260: 9180 983d b336 c8bc ba97 21bc 9ca6 363d
00000270: d8b0 853c ae91 07be 3f98 703c f516 8dba
00000280: 2790 11bc bf8e 993b 237c 4e3e ccda 55bb
00000290: 4870 66ba 2a85 42bc 2095 acbb 6c2c 103b
000002a0: 3634 3dbc ed9c 02be 7918 853d 4902 9b3b
000002b0: e7ed adbb 0780 82bd 32c2 3e3c 0fc9 b73d
000002c0: ce65 a33c 2df3 233c 418a bb3b 56bd f2bd
000002d0: 4d04 0abc 43d1 efba 6343 e23c ab7c dd3b
000002e0: 9e54 fc3b 5353 a4bd de4f 01bc 8a0b 3bbd
000002f0: c22b 08bc a5de 043d 634b e43d 18c9 48bd
00000300: e05c 253d 3261 c93b cd30 2f3b 051d 73bc
00000310: 204f 643d c2c6 cdbc 1c21 95bd aa64 c8bb
00000320: 08c3 12ba 5c1b bbbd dc7f c8ba a949 9f3b
00000330: 2759 103b 07be 53bd 0d26 9ebb 07c0 cabc
00000340: 7c5e 1f3d e598 6bbc 1129 22bb ad5f 96bc
00000350: 3185 d93c 3127 0a3b c886 26bc e369 d8bc
00000360: a75e 1ebd ad1a 413b 3e88 6cba 6e17 03be
00000370: 7246 0a3b 2968 95bb 77be 3abb 7453 93bc
00000380: 052c e6bd f4cf cbbc e662 bbbb 3d91 a23b
00000390: f591 d7bb 3c24 01bc 1bf3 28bb dcd5 69bd
000003a0: 5ee8 663c b2ec 143c 0f58 37bd c208 9bbb
000003b0: 7634 df3b c827 a0bd 91d0 e23b b234 0e3b
000003c0: c1ef d3bb 3735 afbb f3b6 143c 2838 03bd
000003d0: a3bb 37bd fc70 97bc 2d59 6a3b 3fcc 86bc
000003e0: 5b50 323e f0fd 99bc 6112 303b e012 0e3d
000003f0: 7d9e 71ba a57c 593b e932 a33b c2a8 cbbc

last_fc.bias f4 [2]
-0.0016327479 0.0053920317
00000000: ee01 d6ba a4af b03b
